simulation and training/files/results/train_inf_5/SAC_actor_inf_2.onnx (onnx, 269711 bytes, 5 tensors)

latent_pi.0.weight f4 [256, 3]
000000 e4 5e bd be 48 b6 6f 3e 74 82 2c 3f 0e 0c ad 3e
       -0.36986458 0.23409379 0.67386556 0.3379826
000010 55 84 44 bf 4a f8 38 3f 35 c0 ae be cb c3 c2 bd
       -0.7676442 0.7225386 -0.34131017 -0.09510001
000020 33 d5 da be a4 a4 63 3d c3 b2 98 be 41 f7 25 3f
       -0.42740783 0.055576935 -0.29823884 0.64830405
000030 ec 56 7d 3e 66 6e 36 3f ae db e0 3e 1b 06 8a 3e
       0.2474019 0.71262205 0.43917602 0.26957783
000040 dc 8e 15 3e 6f 41 16 3f ea ea 81 be 48 e6 bf be
       0.14605278 0.58693594 -0.25374538 -0.37480378
000050 6d 71 ed 3d 11 0a 79 3e 9a 04 34 3f 34 e5 a8 3e
       0.115939 0.24320246 0.7031952 0.32987368
000060 13 07 4e bf 10 b1 07 be e6 8c 8e be f7 fe 57 3e
       -0.80479544 -0.13251138 -0.27841872 0.21093355
000070 71 ad 86 bf 90 15 10 3e 43 07 23 bb e6 59 8f bd
       -1.052168 0.14070725 -0.0024876154 -0.06999569
000080 7f 0c c0 bd c0 37 33 be 0f 08 91 3d 27 7e e5 bc
       -0.093773834 -0.17501736 0.07081615 -0.028014256
000090 da 12 07 bf 7e c2 b6 be 73 ce 22 bf 6f 65 37 be
       -0.5276314 -0.3569526 -0.63596267 -0.17909788
0000a0 7c fd 03 3e f3 02 6a 3d ec b3 e8 3e 34 38 72 3e
       0.12889665 0.05713172 0.4544977 0.23654252
0000b0 e6 39 b1 be 9d 7b 23 3e ca f4 4f 3e d8 20 76 3d
       -0.34614486 0.15965123 0.20308223 0.060089916
0000c0 a0 86 5c 3c 4d 2a 68 bf ca c4 17 be 18 d4 91 be
       0.0134598315 -0.90689546 -0.14821163 -0.28482127
0000d0 36 b7 67 3e f4 69 d9 be e9 bb aa be 17 9e e1 bc
       0.22628483 -0.42463648 -0.3334649 -0.027541203
0000e0 6d 62 7d be 76 30 ac be 98 5b 7a 3f 9d 55 a7 3e
       -0.24744578 -0.33630723 0.9779601 0.32682505
0000f0 4a 66 d1 3e e4 a7 40 3f 66 e0 3b be d2 68 c2 3d
       0.40898353 0.7525618 -0.1834732 0.09492649
000100 8a 9e 80 bf 18 29 bd 3b 8d 47 12 3f 41 e3 de 3d
       -1.0048382 0.005772721 0.5714043 0.10883189
000110 ae c5 f5 be a4 0a 64 3e 77 47 bc be 75 4d 80 3e
       -0.4800238 0.22269684 -0.36773273 0.25059095
000120 9f f7 1e 3f 5f f6 38 be f9 16 00 bf 02 b5 a5 3e
       0.6209659 -0.18062733 -0.50035053 0.3236466
000130 b4 4d 02 bf 4a b3 4e bf 9e 27 d6 be bf ac 81 bf
       -0.50899816 -0.80742323 -0.418271 -1.0130843
000140 b3 1c 1f be c9 41 8a be 8a b4 c3 bd 7d 8c 83 3e
       -0.15538292 -0.27003315 -0.095559195 0.25693122
000150 32 78 4b bf e0 dd 75 bf a8 f3 fd bd 96 25 1c bf
       -0.7948028 -0.9604168 -0.12399989 -0.6099485
000160 e7 6e b9 3e 17 03 73 3e 00 84 83 3c 9c 32 1d bf
       0.36217424 0.23731647 0.016054153 -0.6140535
000170 9c b0 0b bf f3 8f 7a 3e a0 7e c0 3e 51 a3 89 be
       -0.5456636 0.24468975 0.37596607 -0.26882413
000180 d5 38 19 bf fa d3 8a 3e 3b ca ab bc d7 25 2d bf
       -0.59852344 0.2711485 -0.020970454 -0.67635864
000190 d2 cc 2b bf 76 f9 a2 bd 72 92 da be 26 a3 bb 3e
       -0.67109406 -0.07957737 -0.42689854 0.3664791
0001a0 0f b6 9a be b6 23 ee 3e 42 2b be bd d5 60 98 3f
       -0.30217025 0.4651162 -0.092855945 1.1904551
0001b0 db c7 84 bf e1 37 1a bd ce b3 34 3f 3c 77 af 3e
       -1.0373491 -0.037650947 0.7058686 0.34270656
0001c0 95 18 0c bf 59 8b b1 be f5 c0 ea be 04 f0 8b be
       -0.5472501 -0.34676626 -0.4585034 -0.27331555
0001d0 67 ab 85 3d 41 67 57 be 3c 60 ac be ab 96 c0 be
       0.06526833 -0.21035482 -0.3366717 -0.3761495
0001e0 53 9a 85 bc 8e 3b b7 bc 5e e3 04 bf 81 7a 1c bf
       -0.01630894 -0.022367265 -0.51909435 -0.61124426
0001f0 b8 40 ec be ea 3f 32 3e af 09 e6 be 1c ad c8 be
       -0.46143126 0.17407194 -0.44929263 -0.39194572
000200 ce 35 f1 3d 15 c5 0b be 5f 0b 08 3e b9 73 73 3e
       0.117778406 -0.136494 0.13285588 0.23774613
000210 81 90 66 be 3f dd 07 3e da b2 b6 3e 49 14 d8 3e
       -0.22516061 0.13267992 0.35683328 0.42202976
000220 a0 f0 8c bf 8b f4 3c 3f 89 03 6a bd 19 55 8b 3e
       -1.1010933 0.7381064 -0.057132278 0.27213362
000230 b2 70 64 3e 2b 8e 11 bf c6 a3 cf be 31 77 72 3e
       0.22308615 -0.56857556 -0.40554637 0.2367828
000240 b3 e9 0e 3e e8 26 8b bf 14 41 ba be e6 48 6e bf
       0.13956337 -1.0871248 -0.36377776 -0.93079984
000250 38 ee be bd c7 ec 99 be dd 47 e6 bd c8 7d b9 bd
       -0.0932278 -0.3006346 -0.112441756 -0.09057194
000260 e9 d3 67 be 24 c2 79 3e 1a f8 41 3f fa 36 54 3f
       -0.22639431 0.24390465 0.757692 0.8289639
000270 4c bb 2d 3e cc b4 18 3e fd 7d fa 3e f5 64 00 3f
       0.1696598 0.14912719 0.48924246 0.5015405
000280 0b 26 74 bf 28 7e 8e 3f 61 75 45 be a7 e4 ac be
       -0.9537055 1.113225 -0.19283058 -0.33768198
000290 7a 61 cf 3e 0e f2 e0 bd cd 50 8b be 9c e9 ab bd
       0.40504056 -0.10983668 -0.27210084 -0.08394167
0002a0 51 6b 5a bd 98 a1 85 bf 7c 86 35 be e4 06 51 3e
       -0.053325 -1.043994 -0.17727083 0.20412785
0002b0 44 1f 80 bf 24 88 90 be 83 35 d8 3d 5c 7c 15 bf
       -1.0009542 -0.28228867 0.105570816 -0.5839288
0002c0 1a c0 6d be 22 d4 be bd bd 3f ad be 81 b9 30 3f
       -0.23217812 -0.09317805 -0.3383769 0.69033056
0002d0 63 75 01 bf 5a 89 20 be bd 75 14 bf 56 7d 82 be
       -0.5056974 -0.15677395 -0.57992154 -0.2548625
0002e0 1f 15 48 be b0 1b 60 3e 80 ff 4b bf e8 46 5c be
       -0.19539307 0.21885562 -0.7968674 -0.21511424
0002f0 d6 50 a8 be 40 60 ea 3c 5f 68 b3 3e 45 ec 3b 3e
       -0.32874173 0.028610349 0.35040566 0.18351848
000300 6b 79 82 be 83 dc 66 be e1 88 bd bb c2 70 6a bd
       -0.2548326 -0.22545056 -0.0057841395 -0.05723644
000310 85 52 2d bd f9 bb d8 3d f4 ae 2c bf fc ae 97 bd
       -0.042315025 0.10582728 -0.6745446 -0.074064225
000320 3d e0 17 3f ee bb 01 3f bd f8 46 3f d3 52 39 3f
       0.59326535 0.5067738 0.77723294 0.72392005
000330 b4 42 23 be 99 9a 80 bf c9 b8 07 be 7b 21 e6 be
       -0.15943414 -1.004718 -0.13254084 -0.4494742
000340 50 11 11 3f 0b b5 6b 3e f9 e7 9c 3e b4 58 4f 3f
       0.5666704 0.23018281 0.3064573 0.80994725
000350 7b 0e 84 3d a9 fa 0b bf bb 9d 12 3e e1 b4 f4 3e
       0.064480744 -0.5467935 0.14317982 0.4779425
000360 83 32 ba 3e 93 ee f3 be dd ea 29 bf 33 08 06 3e
       0.36366662 -0.47642955 -0.66374 0.13089065
000370 6f 39 91 bf c6 18 c5 be 34 9f 2a bf d5 e2 23 bf
       -1.1345652 -0.38495463 -0.66649175 -0.64017993
000380 c1 de 33 bf b3 22 6b be 03 a4 94 be cc 1c 54 3e
       -0.7026177 -0.22962455 -0.2903138 0.2071411
000390 45 5a d4 3e e3 42 1e 3f 74 11 84 3f 70 e4 a5 3e
       0.4147512 0.6182081 1.0317826 0.32400846
0003a0 00 da 70 3d 8e 23 31 bf 28 b4 c8 3e 7e e7 f1 be
       0.05880165 -0.6919488 0.39199948 -0.47246927
0003b0 82 57 d8 be 8f a8 21 3e 11 70 83 bf 68 9d 08 3d
       -0.42254263 0.15786956 -1.0268575 0.03335324
0003c0 13 a2 9b 3e 5c a8 27 3e 0e ca 1e 3f 6c 47 07 bf
       0.3039709 0.16372818 0.6202706 -0.52843356
0003d0 38 a1 7e bf c9 95 96 bd 23 54 97 3d 7d 70 cc 3e
       -0.9946475 -0.07352788 0.07389095 0.39929572
0003e0 80 5b 00 3f 7b 78 d1 be 17 49 9a be c3 99 9f be
       0.5013962 -0.40912232 -0.30133888 -0.31171998
0003f0 99 73 a6 be e5 aa 66 be d1 7a 97 3e d9 54 95 3e
       -0.3251007 -0.22526129 0.2958589 0.29166296

latent_pi.0.bias f4 [256]
000000 9c 29 a8 3e b3 82 ab be ef af e0 be 5c a8 45 be
       0.32844245 -0.33498153 -0.43884227 -0.19302505
000010 64 6d 6b 3e 82 ea 94 be fa 58 1b 3e 03 61 ad 3d
       0.22990948 -0.29085165 0.1517066 0.08465769
000020 d8 7e 66 be 0f b4 c7 bb 20 97 03 be cf e7 a6 be
       -0.22509325 -0.0060944627 -0.12850618 -0.3259873
000030 30 3c de be 9f 8a 8e be b0 95 fc be 54 fa 6e be
       -0.43405294 -0.27840135 -0.49332952 -0.2333768
000040 a6 44 9e 3e a0 2f 24 bf f7 56 a5 be 27 1e d4 be
       0.3091175 -0.6413517 -0.3229291 -0.41429254
000050 cc 28 c3 be f4 65 25 3e fd 84 c4 be 65 dc 27 bf
       -0.38117063 0.16152173 -0.38382712 -0.6557067
000060 03 ef e5 bd 5a ed d8 be f5 13 bc 3d ec fb 81 3e
       -0.112272285 -0.42368585 0.09183494 0.25387514
000070 a9 0e 7a be 5d f9 26 be 45 36 c6 3d db 10 91 be
       -0.24419655 -0.16306062 0.0967832 -0.28333172
000080 e0 ca b0 be c3 ea 92 be 4f 76 d9 be cb 19 f0 be
       -0.3452978 -0.28694734 -0.42473075 -0.46894678
000090 70 13 8e be cd 6a 2c 3e ba e0 93 3e 28 bf da bd
       -0.27749205 0.16837616 0.2888239 -0.106809914
0000a0 04 2e ce be 7b 3f 7c 3e d2 29 63 3e 27 f9 04 3e
       -0.40269482 0.24633591 0.22183922 0.12985669
0000b0 a0 2c 07 be 9f eb d8 be 80 65 14 3a 7b 38 e2 3c
       -0.13200617 -0.42367265 0.00056608766 0.027614823
0000c0 4a 40 c6 3e 57 c6 95 be bf 03 21 be 98 37 b7 be
       0.38720924 -0.29252884 -0.15724085 -0.35784602
0000d0 0c 0a 40 be a9 e7 ec be eb 61 74 3e 02 5e f5 3c
       -0.18753833 -0.46270493 0.23865478 0.029952053
0000e0 5d 76 c3 3e e7 28 38 bd d0 4d 00 bf 39 41 00 bf
       0.38176242 -0.044960883 -0.5011873 -0.5009952
0000f0 26 70 11 bf 5f ef 89 3e 32 ee b9 be d0 dc bd bb
       -0.5681175 0.26940438 -0.3631454 -0.005794145
000100 2b b0 d9 bd 59 68 b3 bd 85 ca c1 bd 7b 3d ec be
       -0.106293045 -0.08760137 -0.09462456 -0.46140656
000110 3e b5 70 3e eb 07 a7 be 30 a2 35 3d 3b 2a b3 3d
       0.23506638 -0.32623228 0.044344127 0.08748289
000120 e5 e0 b1 bb 1c 2d c8 3e ac 3d 85 be c1 14 b1 3e
       -0.005428421 0.39096916 -0.26023614 0.34586146
000130 ca df 95 be 68 ac a8 be 04 33 9d be d7 b1 08 3e
       -0.292723 -0.32944036 -0.30702984 0.1334909
000140 09 c4 a6 be 40 4a d2 3d d4 da a3 3e ba d1 cc bc
       -0.32571438 0.10268068 0.3200289 -0.02500235
000150 73 03 ac 3e 6f e2 37 be 90 23 1c be f8 88 fe be
       0.33596382 -0.17957471 -0.15247941 -0.49713874
000160 9c 56 0a bf 50 5d 12 3d 07 f0 57 be 89 fc c0 be
       -0.54038405 0.03573352 -0.21087657 -0.3769267
000170 46 b5 65 3d 06 e4 06 3d 36 69 d0 be 99 30 c3 be
       0.05608108 0.032932304 -0.4070527 -0.38123015
000180 12 8f 94 be df e0 b0 3d 26 19 25 bf c4 c1 6e be
       -0.29015404 0.08636641 -0.644915 -0.23316103
000190 b9 42 01 3d 1c 8d 3c bd 77 b9 59 be 5b 53 0e 3f
       0.031557772 -0.04603301 -0.21262155 0.5559594
0001a0 ee 5a 81 3e 14 a9 a8 be df 4c 80 be 29 23 56 bd
       0.25264686 -0.32941496 -0.25058648 -0.052279625
0001b0 34 c5 73 bd 6f ed d7 3e a9 72 38 be ef fc 99 be
       -0.05951424 0.42173335 -0.1801249 -0.30075786
0001c0 bd e1 f7 be bd 53 d8 3e 8e 77 4e be f2 4a d2 3e
       -0.48414412 0.42251387 -0.20162794 0.41072804
0001d0 8d 1d 66 3c 29 bd 1f be 25 cf c1 3e e9 fa 56 3d
       0.014045131 -0.15599503 0.3785335 0.05248538
0001e0 f8 3f 8e bc 28 43 07 bf eb 43 da bd d8 3d fe be
       -0.017364487 -0.5283685 -0.106574856 -0.49656558
0001f0 da 23 62 bd d0 ff 0f bc 53 60 75 be 3b ff 10 bf
       -0.055209972 -0.008789018 -0.23962526 -0.5663945
000200 7c 26 18 bf ef c7 2b 3c 43 ca e6 be 24 77 d4 be
       -0.5943372 0.01048468 -0.45076188 -0.41497147
000210 a3 ca af 3e e0 b5 9f bd fb 4c 63 be 27 9e 9e be
       0.34334287 -0.07798362 -0.22197334 -0.30980036
000220 c9 75 2e bf f0 db b7 3e e3 a5 b9 be 46 1b 60 be
       -0.68148476 0.35909986 -0.36259374 -0.21885404
000230 91 1e 03 3e f1 9c 36 be e6 b5 cb be 49 aa 82 3e
       0.12804629 -0.17833306 -0.39787215 0.25520542
000240 53 31 0d 3e 0c 05 10 bf bd cd 0a bf 60 08 66 3e
       0.13788347 -0.562577 -0.5422018 0.22464132
000250 e7 d7 be be 70 d1 ca 3e 43 47 8e bd 81 d3 51 bd
       -0.37274095 0.39612913 -0.06947186 -0.051227096
000260 d1 77 a8 3e 86 dd f4 be 39 73 5d 3d 7c cd fa 3e
       0.32903913 -0.4782526 0.054064963 0.48984897
000270 20 f8 cc 3d 11 df 8a be d0 fc 87 be 13 02 d3 be
       0.100082636 -0.2712331 -0.26560068 -0.4121252
000280 0d e1 cb 3c 75 d8 ef 3c fc 49 de be 9d fc 16 bf
       0.024887586 0.02927802 -0.4341582 -0.5897921
000290 ef 70 30 be aa 2c 79 3e 41 46 43 3e ec 62 d1 3d
       -0.17230581 0.24333444 0.19069768 0.10223946
0002a0 19 e5 9e bd d2 e1 02 bf b6 ea cb 3e 90 4c b0 be
       -0.07758541 -0.51125824 0.39827508 -0.34433413
0002b0 d3 9a fb 3c 34 01 a5 3e c1 30 9a be 1a ef a5 3e
       0.030713474 0.3222748 -0.3011532 0.32408983
0002c0 0e a7 70 3b 06 7d ee 3e c2 b3 55 be f3 53 6e be
       0.0036720666 0.4657976 -0.20869353 -0.23274212
0002d0 ec e2 bd be d2 f1 e5 be 0b 07 b8 3e 21 26 c2 bd
       -0.3708719 -0.44911057 0.35942873 -0.09479929
0002e0 a8 23 11 bf f0 79 e3 be c2 05 dc 3d 63 d1 86 3e
       -0.5669503 -0.44428968 0.10743286 0.26331624
0002f0 5b 44 0a be 64 4e a0 be 00 d7 55 3e e0 65 92 be
       -0.13502638 -0.31309807 0.20882797 -0.2859335
000300 28 d0 09 bf 34 1d 9c bc 41 64 5b 3e dc 8e e1 be
       -0.53833246 -0.019056894 0.21424963 -0.44054306
000310 53 e6 f8 3d f6 ee 88 be 35 2b cd be 46 76 ac be
       0.12153306 -0.26744813 -0.40072027 -0.33683985
000320 5c 0f 12 3c 1b 14 a1 be 04 1c fb bd c3 5f 16 3f
       0.008914795 -0.31460652 -0.12261203 0.5873987
000330 29 ad 3a be b3 1b b7 be 89 70 73 bd 43 1d f5 be
       -0.18230118 -0.3576332 -0.059433494 -0.47873887
000340 fa 4a f1 be 84 3a 15 3e 3c a0 75 be c2 24 02 bf
       -0.47127515 0.14573103 -0.23986906 -0.5083734
000350 18 2f d1 bd c8 7e 3a 3d a9 9a 20 be a5 41 3c be
       -0.102140605 0.045531064 -0.15683998 -0.18384416
000360 2c 4b 23 3e 96 fd 76 be 1f 70 a1 3e 58 02 60 be
       0.15946645 -0.24120173 0.31530854 -0.21875894
000370 c4 23 53 be e7 a1 c2 be bf c6 8a 3e 9c fb c3 be
       -0.20619112 -0.38014147 0.27104756 -0.382779
000380 aa 93 33 3e 81 0e dc 3d d9 c2 6b be 56 b8 cf be
       0.17536798 0.10744954 -0.23023547 -0.40570325
000390 a0 d9 c1 3e d4 a5 ab be 44 fd f4 be 73 b7 23 3e
       0.37861347 -0.33524954 -0.47849476 0.15987949
0003a0 c3 6b c0 3d d1 85 3a 3e cd 93 e9 3d e8 0d f7 be
       0.09395554 0.1821511 0.11405144 -0.48252797
0003b0 bc b5 ae bd 09 72 a4 be e6 a1 30 3d 23 c3 14 be
       -0.08530757 -0.32118252 0.04312315 -0.14527564
0003c0 29 c4 16 bf ff ae 88 3c dc f4 c6 be 9b 86 ff be
       -0.58893067 0.016685007 -0.38858688 -0.49907383
0003d0 5a 28 bd be e6 68 ad be 66 19 ec 3e ba 9f 0f bf
       -0.36944848 -0.33869094 0.46113127 -0.561031
0003e0 30 bd 1d 3e a6 27 cb be 3a b0 2f 3e 41 f0 ce 3e
       0.154042 -0.39678687 0.17157069 0.40417674
0003f0 1d 0c 12 bf f4 d1 c4 be 50 ef c4 bd e3 05 8e bc
       -0.57049733 -0.38441432 -0.09615958 -0.017336791

latent_pi.2.weight f4 [256, 256]
000000 dd 21 78 bd d3 43 31 bd f4 36 30 3c 05 88 46 bd
       -0.06057917 -0.043277573 0.010755289 -0.048469562
000010 45 b2 a5 3c 7a d3 ed bd be 62 67 bd ba 8e 1e bd
       0.020226607 -0.116126016 -0.056490652 -0.038710333
000020 b2 e6 43 3d cf ec 0e bd 55 7b 91 bc fc c0 fc bc
       0.04782743 -0.034893807 -0.017759005 -0.03085374
000030 c5 8d aa bc e1 52 0b 3d 4a ad 86 bd 45 75 dd 3c
       -0.020819554 0.034014586 -0.06576021 0.027033458
000040 58 e5 96 bd f5 32 39 3d d1 62 86 bb ce 94 25 3b
       -0.073679626 0.045214612 -0.0041011353 0.0025265696
000050 0e bd 31 bd d8 35 17 bd a8 1b 8f bd 5e 04 46 3d
       -0.043393187 -0.036916584 -0.06987697 0.04834401
000060 04 7f 16 3c d3 49 99 bd 49 3c b8 bc 52 c7 55 bd
       0.009185556 -0.07484784 -0.022489684 -0.05219204
000070 7b 69 36 3d d8 02 33 bc 18 4d 0a 3d ac 67 4c 3c
       0.044534188 -0.010925971 0.03376493 0.012475889
000080 87 9c 77 3c fa f8 3d 3d 29 43 40 bd 44 ba e4 bc
       0.015113003 0.04638002 -0.04693905 -0.02792085
000090 09 ac 63 bd 9f 19 8b 3c 44 16 29 bd ae 76 f9 3b
       -0.055583987 0.01697999 -0.041281 0.0076130247
0000a0 c3 03 33 bd 2c e6 84 bd c5 89 4f bc 73 8d 4c 3c
       -0.04370476 -0.06489214 -0.012667124 0.012484896
0000b0 53 69 42 3d b0 db bf bb 53 67 7d bd bc 25 82 bc
       0.047463726 -0.005855046 -0.061866116 -0.015887134
0000c0 3f 89 e3 3b 86 3f e5 3d a6 c6 8c bd 2f c4 39 3c
       0.0069438512 0.11193757 -0.06873827 0.011338278
0000d0 b9 97 36 3d b3 f4 6b bc d3 40 d8 bd 11 bf b0 ba
       0.044578288 -0.014401603 -0.10559239 -0.0013484677
0000e0 0e ce 97 bc e1 51 45 3d 03 0a 93 bc aa da a5 bd
       -0.018530872 0.04817379 -0.01794911 -0.080983475
0000f0 b4 ef 65 3c 86 d6 fc bc d7 38 62 bd f1 41 bb bd
       0.0140342 -0.030864011 -0.055229988 -0.09143437
000100 56 79 17 3d 43 60 00 bd 8f 94 26 3c d5 1c 13 3d
       0.03698095 -0.031341802 0.010167255 0.03591617
000110 1f 6d 8a bd ec fd 63 bc 43 bd 3b bd e4 f2 08 3d
       -0.067590944 -0.01391552 -0.04583479 0.033434764
000120 99 89 9e 3c 1c cd 5a bc 3f df 21 bd bf a6 23 3d
       0.019352721 -0.013354566 -0.039519545 0.039953943
000130 d9 14 8d bd 19 a2 53 bc 13 ac 66 bc 62 cf 56 3b
       -0.06888742 -0.012917065 -0.014079112 0.0032777418
000140 88 71 ba bd e2 4b 1b bd ef 04 0d bc 26 bf 88 bd
       -0.091036856 -0.037914164 -0.008607133 -0.06677084
000150 5f 93 8c bd 5e 6d 97 bd 93 48 86 bc b3 53 87 3c
       -0.06864046 -0.07393907 -0.016392028 0.016519403
000160 66 4d 76 3d 63 d1 d0 bc 32 e7 2f bd e3 98 bd 3c
       0.060132407 -0.025490468 -0.042945094 0.023144191
000170 fd 6e 33 3c f6 bc 80 bc 1f 01 ba bb 39 22 2c 3c
       0.010951755 -0.015715104 -0.005676403 0.010506206
000180 27 c8 4f bd 7d 03 5c bd 48 a1 8a bd dc 3f bd bd
       -0.05072799 -0.053714264 -0.06769043 -0.09240696
000190 8f f9 b5 3c c4 19 b0 3c 26 f7 09 3c f1 18 be bc
       0.022213725 0.021496661 0.008420741 -0.023205252
0001a0 07 7e 68 bc 7c 3f ae b9 d2 fe 1a 3d 3d 68 1b 3d
       -0.0141902035 -0.00033235166 0.03784067 0.037941206
0001b0 7f 0b 46 3c 34 ea d7 3c 73 23 22 bd 4a ac ba 3c
       0.012087702 0.026356794 -0.03958459 0.022787232
0001c0 79 38 15 3d 81 75 9c bd d6 71 20 bc 9f bc 7b bc
       0.03643081 -0.076395996 -0.009792766 -0.015364795
0001d0 ab 78 06 3a 71 68 05 bd a3 f6 2e 3d ca ec 9d bd
       0.0005129675 -0.032570306 0.04271568 -0.077111796
0001e0 0c 27 63 3d 01 3a 3b bd 8b 9d 37 3d 21 a6 4c bd
       0.05545716 -0.045709614 0.04482798 -0.04996312
0001f0 2c 42 d9 3b 16 cb 03 bd 6c f8 61 bd e7 ec be 3d
       0.0066302028 -0.0321761 -0.055168554 0.09322529
000200 72 00 bb bc 5b f8 88 bd 9b 9a 1a bd 00 4c 64 b9
       -0.02282736 -0.06687995 -0.0377451 -0.00021772087
000210 5a 53 5e 3c 71 6b ca 3b 26 26 31 3d 8c c9 59 3d
       0.013569677 0.006177359 0.04324927 0.053170726
000220 ca da 5a bc 25 24 22 3d ff 14 80 bd 07 1e 54 bd
       -0.013357827 0.03958525 -0.06254005 -0.05178645
000230 78 06 7d bd 9e ab e9 bc 7c 9a 3d 3d 7c 8e 52 3c
       -0.061773747 -0.028524216 0.046289906 0.012851354
000240 2b e6 a0 bc d1 5e b2 bb 47 5a 4f bd 52 49 7f bd
       -0.019641003 -0.005443432 -0.050623205 -0.062325783
000250 b0 2f f4 bc eb 4b 6d 3b 84 d2 09 3d 6f c7 2d 3c
       -0.029807895 0.003620858 0.03364803 0.010606631
000260 f7 53 07 bc 6a 26 3e bd ed ad 23 3d 46 35 0f bd
       -0.008259765 -0.046423353 0.03996079 -0.034962915
000270 2d d6 33 bd fd 4d 5f bc 1a ec db 3c ff 8a d6 bc
       -0.043905426 -0.013629434 0.02684598 -0.026189325
000280 fe c1 9b bd 7b 9f 1c 3d 1a be ca bb f9 f8 36 bc
       -0.076053604 0.03823803 -0.0061872127 -0.011167758
000290 78 12 c2 bc 05 51 c6 bd d3 dc 85 bd 58 fc 35 3c
       -0.023690447 -0.09683422 -0.065362595 0.011107527
0002a0 99 75 64 3d 87 90 eb 3c 12 0f 0e 3d c9 93 d0 bc
       0.055776212 0.02875544 0.03468234 -0.025461094
0002b0 79 68 06 bd 4b 6a 21 bc f4 9c a1 bd 19 b4 7b bd
       -0.032814477 -0.009852002 -0.078912646 -0.06145105
0002c0 b4 b8 57 bd 5e e7 78 bd fe e1 ec 3c 6b 02 7e bd
       -0.05266638 -0.060767524 0.028916355 -0.062014025
0002d0 18 93 e3 bc ea dd 33 3d 42 86 f4 3c 18 1b 61 bd
       -0.0277801 0.043912806 0.029849175 -0.05495748
0002e0 73 a2 5c 3a 18 61 59 bc 70 3d b1 3b fb ed c6 3c
       0.0008416541 -0.013267778 0.0054089352 0.0242834
0002f0 88 06 84 bd 51 29 ef bc b9 48 13 3d 3c d9 61 3d
       -0.06446558 -0.029194506 0.035958026 0.05513881
000300 ad 38 ab bc dd 13 23 bd 7a 33 3c bd c9 28 b3 bc
       -0.020901049 -0.039813865 -0.04594753 -0.021870034
000310 ad f2 a1 bc 76 a1 4d bd 55 66 2d bd c4 64 b7 bc
       -0.019769037 -0.05020281 -0.04233392 -0.022386916
000320 90 36 86 bc 75 4d 30 bd 03 ab e8 bd 06 f0 3b bb
       -0.01638344 -0.04304262 -0.11360743 -0.0028677
000330 39 5d e5 bd 07 0f 78 bd 89 b2 d1 3b 8d 82 66 bd
       -0.111994214 -0.060561206 0.006399457 -0.056276847
000340 16 4b 82 bd 1f 3c bf bc c6 74 50 bd 68 13 d6 bc
       -0.06361978 -0.023344098 -0.050892614 -0.0261323
000350 51 9d 29 3d e0 23 7a bd 28 0e 5f 3c a9 7a ac 3b
       0.041409794 -0.06106937 0.013614215 0.0052636457
000360 7f 26 30 3c 50 7b 80 bc 4c 72 4a bd 74 cf 38 bd
       0.010751366 -0.0156838 -0.04942541 -0.045119718
000370 2a e9 57 3a 8a 37 f6 bc e8 c0 85 bc 45 20 2b 3d
       0.0008236343 -0.03005578 -0.016327336 0.04177882
000380 26 57 c6 bd 57 a6 37 bc 44 7a 7a bd f7 65 8e bb
       -0.09684591 -0.011209092 -0.061151758 -0.0043456513
000390 9c 1b 06 bd 71 07 25 3c 6b 8a 1e 3d f7 4a 76 bb
       -0.032741174 0.010072575 0.038706224 -0.0037581304
0003a0 d7 86 8b 3c 05 6f 4d bc a6 fd 8a bc 7c b6 f8 bc
       0.01703207 -0.012538676 -0.016966652 -0.030360453
0003b0 3f 24 6e 3d 62 e7 00 bd 9c 3b 44 bd 57 fa 33 bd
       0.058140036 -0.031470664 -0.04790841 -0.043939915
0003c0 1d 0a b1 bc 14 7c 53 ba 27 ec 6e 3d 4a c2 3f 3d
       -0.021611268 -0.00080675003 0.05833068 0.046816148
0003d0 13 2a 19 bd 2e 0f 16 bd bc 53 82 bd 74 2b 45 bd
       -0.03739364 -0.03663557 -0.06363627 -0.048137143
0003e0 54 0a ca 3b 11 03 75 3d 57 5a 1e bd 3e a7 14 bd
       0.006165782 0.059817377 -0.038660374 -0.036292307
0003f0 a2 8c ad bd 09 42 f6 bc 08 91 6f bc aa e9 f3 3c
       -0.08474089 -0.030060785 -0.0146219805 0.029774506

latent_pi.2.bias f4 [256]
000000 24 60 d6 3c 59 0b 23 3d 88 09 78 3d 5b 7e 10 3c
       0.02616889 0.039805744 0.060555965 0.008819188
000010 8f c1 a9 3c a9 05 01 3d ae 38 5e bd 61 5a 27 bd
       0.020722179 0.03149954 -0.054253273 -0.040857676
000020 e7 46 5d bd 1c 59 27 bd f5 cb 50 3c c9 81 04 be
       -0.054022696 -0.040856466 0.01274394 -0.12940134
000030 45 45 38 be 00 ae 8c bc 8c 7d 43 bd 91 43 6f 3b
       -0.17995174 -0.017172813 -0.047727153 0.0036508779
000040 75 ae 00 3c 30 f5 8e 3d 2d e5 00 3d 41 03 6c bd
       0.007854094 0.069803596 0.03146856 -0.05762029
000050 a2 1c f8 bc 79 66 14 be 81 66 aa bc d7 fd 0b be
       -0.03028709 -0.14492215 -0.02080083 -0.13671051
000060 af 4b cd 3d b8 17 e2 bd b4 16 f5 3b 8f bd 87 bd
       0.10024201 -0.1103968 0.007479513 -0.06627952
000070 13 26 37 bd 0a 48 2f 3d 48 96 0b bd 72 38 19 be
       -0.044714045 0.04279331 -0.034078866 -0.14962938
000080 de d0 27 3c 00 6e 9a bc 75 b0 1a bd 20 65 33 3d
       0.010242669 -0.01885128 -0.03776594 0.043797612
000090 fb c3 c4 bc b1 a9 e9 bb ae 59 26 bd 7f 93 16 be
       -0.024019232 -0.0071308245 -0.04061287 -0.14704703
0000a0 ec 7a 45 bd 43 36 35 3d 59 93 d3 bd dc f5 95 bd
       -0.04821293 0.0442412 -0.10330839 -0.073222846
0000b0 73 38 73 bd bc be a1 ba d0 50 bd bc 76 82 a8 3c
       -0.059380006 -0.0012340168 -0.023109823 0.020570021
0000c0 c1 f6 8c bd bd 9f 26 bd f7 36 40 3d 56 58 46 3c
       -0.06883002 -0.040679682 0.04692742 0.012106022
0000d0 3d 8a c4 3c c5 75 bf 3c 3a 24 47 bd 85 12 25 be
       0.023991698 0.023371587 -0.048618533 -0.16120346
0000e0 a9 70 5e be e1 5b f0 bd 57 06 94 bd 6c 18 79 be
       -0.21722664 -0.117362745 -0.07227772 -0.24325722
0000f0 17 4e 35 3d 4e b8 21 bd 07 58 90 bd 0d 66 2f 3a
       0.044263925 -0.039482407 -0.0704804 0.0006690927
000100 1a b2 8b 3d f4 27 7f bd 27 85 b8 ba ec 83 89 be
       0.068210796 -0.06229396 -0.0014077768 -0.2685846
000110 7e a4 e5 bb 5a ba 5a bd 4b 50 8e bd 89 a3 88 3c
       -0.0070081344 -0.053400375 -0.069489084 0.016679542
000120 49 8e fe bb 6d 12 de 3c e6 5e 9e bd 20 23 22 be
       -0.0077684266 0.027108395 -0.07732944 -0.15833712
000130 8e cb 7b bd 4a 51 4d 3c bf 36 d2 bd c0 fc 21 bd
       -0.06147342 0.012531588 -0.10264348 -0.03954768
000140 e6 00 17 bc 95 87 15 3d 4c e9 32 be 3c fb 2e bc
       -0.009216523 0.036506254 -0.17471808 -0.010680016
000150 d7 a3 12 bc 6a 56 92 bb 60 e3 97 3c db 6d 38 bd
       -0.008950195 -0.0044658678 0.018541038 -0.04502664
000160 9b 56 63 3d 66 75 e7 bc 47 1a 7d bd e9 6d 66 3c
       0.055502515 -0.028254222 -0.06179264 0.014064291
000170 c2 9a 57 bd c8 c1 48 bd 1c 85 21 be 25 f6 b2 bd
       -0.052637823 -0.04901293 -0.15773433 -0.087383546
000180 d7 df 20 3c 5b 05 0a be 47 37 3a b9 06 19 74 bd
       0.009818993 -0.13478605 -0.00017758935 -0.059594177
000190 d0 3b 63 bc 0b 8e ed bd ea 3d b7 3b f3 e6 06 be
       -0.013869241 -0.11599358 0.0055920975 -0.13174038
0001a0 66 a7 f8 bc 8d 67 15 bd 8a c2 60 bd 2f 18 19 bd
       -0.03035326 -0.036475707 -0.054873027 -0.03737658
0001b0 d9 4e 84 bd 90 76 3c be 8b d1 2d bd 69 21 3c bc
       -0.064603515 -0.18404603 -0.042436164 -0.011482575
0001c0 b9 85 76 bd 1f 43 3f be 97 9c 71 3c 29 de 45 bd
       -0.06018612 -0.18677948 0.014746807 -0.04830757
0001d0 17 4a 27 bd 9b 7e 07 bd 4f 32 13 bd 0a bc 70 3b
       -0.040842142 -0.033079725 -0.03593665 0.0036733174
0001e0 e6 41 4f bd 98 d0 71 be 16 bb dc bd e5 74 41 bd
       -0.050599955 -0.23614728 -0.10777871 -0.04723062
0001f0 21 6e fd 3c b5 7f 0b 3d 83 e7 3f bb a6 2a 73 b9
       0.030936303 0.034057338 -0.002928228 -0.00023190174
000200 a5 c3 cf bd e1 bb 69 3c 00 95 fb bc 04 8a b4 3b
       -0.10144738 0.014265985 -0.030710697 0.005509617
000210 12 96 35 bd b9 4e 04 bd 1a ac 0e be 00 fd db 3b
       -0.04433257 -0.03230164 -0.13932839 0.0067135096
000220 7e 39 2c bc d4 8e ef 3c 83 6e 00 be 49 05 c4 3c
       -0.010511754 0.02924291 -0.12542157 0.023928301
000230 bb 9f 27 bd 33 98 3f bd ac dc 02 3d c6 91 80 3d
       -0.040923815 -0.046776008 0.03194873 0.06277804
000240 45 4a 04 bd cc bd b5 3c b0 eb e4 bc 20 77 ee 3b
       -0.03229739 0.022185229 -0.027944416 0.0072773844
000250 f7 9e 82 bc 7e 15 0b 3d db d5 9c 3c 20 a7 34 3d
       -0.015944941 0.033956043 0.019144943 0.044104695
000260 86 43 16 3d 58 ec 6f 3b ee 14 33 bd e3 fe 14 bc
       0.03668549 0.0036609378 -0.043721132 -0.009093973
000270 66 32 2e 3d 96 d8 3c bc 59 be 9c 3c af 56 c4 bc
       0.042528532 -0.0115262475 0.019133734 -0.023967115
000280 44 5b 99 bd ac b8 82 bd 3a c4 7f bd ad fd 09 bd
       -0.07488111 -0.063828796 -0.062442996 -0.03368919
000290 47 c6 91 bd 86 ab 0f bd d2 9a 19 bd a1 8e 02 bd
       -0.071178965 -0.035075687 -0.037501164 -0.031874303
0002a0 c4 40 4b bd a8 a0 53 bc 49 0f 79 bd e1 c9 c0 bd
       -0.049622312 -0.012916721 -0.060805593 -0.09413505
0002b0 2f d5 f8 bd ae a7 45 bd 79 0e 76 be a8 92 6f bd
       -0.121500365 -0.048255615 -0.24028958 -0.05848947
0002c0 95 18 47 bc 6c c0 8b bd 98 99 31 bb 16 3d d6 bd
       -0.012151857 -0.06823811 -0.0027099606 -0.1046087
0002d0 a7 6b c8 bc f8 8b 00 be e4 0b 47 bd db b6 7e bd
       -0.024465395 -0.12553394 -0.048595324 -0.062186103
0002e0 5f 5a 6d be 23 16 c4 bd da d9 5c bd a6 9e 14 bd
       -0.23179005 -0.09574535 -0.053918697 -0.03628411
0002f0 ba 1f 1b ba e6 a5 ed 3c 66 d2 91 bd 2b 0a 08 bd
       -0.00059175084 0.02900977 -0.071202084 -0.033212822
000300 b7 ea 7f bd ef e4 87 3b 36 84 dd 3c 61 cc ac 3c
       -0.0624797 0.004147164 0.027040582 0.02109355
000310 f4 eb e0 3c cd 93 17 3c 09 e0 b7 bc 43 9c 99 bd
       0.027456261 0.009251547 -0.022445695 -0.07500508
000320 7c 8f 51 3c 09 cd eb 3c 1f 58 cf bd 15 7f 02 3c
       0.012790557 0.028784292 -0.1012423 0.007964869
000330 5d 45 b2 bc 93 27 50 bc de 62 95 bd 44 d5 57 bc
       -0.02176159 -0.012704748 -0.07294248 -0.013173405
000340 a7 00 66 bd 5f b5 26 be 0c c6 81 3c 38 e8 49 3c
       -0.056152966 -0.16280125 0.015841506 0.012323432
000350 c9 b2 f9 3c d4 5d 5f bd 51 68 18 bd 36 a3 31 be
       0.03048076 -0.05453284 -0.03720886 -0.17347416
000360 d3 33 d2 3c 47 09 95 bc c3 1f 5b bc 12 bc 8f bc
       0.025659477 -0.0181929 -0.013374272 -0.017545734
000370 62 47 1c 3d 0e cf 1f bd 25 95 95 bd 89 db 3b 3c
       0.038154013 -0.039015822 -0.07303838 0.0114659155
000380 9f d2 7d 3d 2f 7f 8c bc 4c 22 5f bd 44 83 8d 3b
       0.061968442 -0.01715049 -0.054476067 0.0043186266
000390 27 e9 21 3e 38 e9 4b be 55 7d e4 bd 1b f6 8a bd
       0.15811597 -0.19913185 -0.11156718 -0.06785222
0003a0 fe 85 ad bc 25 13 27 bd 18 4a df bd bc ab c8 bc
       -0.021182057 -0.040789742 -0.10902804 -0.024495952
0003b0 74 e1 ba 3c fe 63 20 3d f6 db 87 bd b4 e3 c7 bd
       0.022812583 0.03915786 -0.06633751 -0.09760228
0003c0 8d 03 91 bd 1b b6 83 bd 57 e3 b1 3c eb a7 2e bc
       -0.070807554 -0.06431218 0.02171485 -0.010660152
0003d0 0c 8f d5 bd 99 3a b1 bd 31 41 42 bd 0d 18 43 be
       -0.10427675 -0.08653755 -0.047425453 -0.19052143
0003e0 f7 65 04 3c d1 8c 2f bd 83 c4 6c ba 94 08 02 be
       0.008080951 -0.042858902 -0.0009031968 -0.12698585
0003f0 5c 31 98 3b d6 d2 31 bd 5f d5 6b bc 33 ab b8 bd
       0.004644556 -0.04341396 -0.014394133 -0.09017029

mu.0.weight f4 [1, 256]
000000 19 c9 68 bb d0 54 0f 3c 36 2c 60 3c 86 e5 33 bc
       -0.0035520254 0.008748248 0.013682416 -0.010980016
000010 bb 85 21 bd 3e 98 b3 3b 3a ad 5b bd a2 6f 85 bd
       -0.039434176 0.005480795 -0.053632 -0.06515433
000020 0e 86 75 3c 41 cc b8 bb 80 36 45 bc 39 75 67 3f
       0.014985574 -0.0056395833 -0.01203692 0.9041324
000030 ed 13 a5 bd 47 da 44 3d dd 59 29 bd 10 8a 83 bc
       -0.08060441 0.048059728 -0.041345466 -0.016057044
000040 47 82 b1 bb 88 fe da be 93 6f 9c 3c ee 64 4b 3b
       -0.0054171416 -0.42772317 0.019096171 0.00310355
000050 75 6b 31 3d 40 da 04 c0 0c 78 7e bc c3 35 98 bc
       0.04331537 -2.075821 -0.015531551 -0.018580323
000060 de d8 bf 3e c6 31 25 c1 f5 3f ad 3c 6d 49 0a 3d
       0.37470144 -10.324652 0.021148661 0.03376143
000070 9a 4b 1e 3d 5d 8a 5e be 75 0f ea bc 1d 9c 3f 3d
       0.038646318 -0.21732469 -0.028571824 0.04677974
000080 ad d5 3a bd 86 52 c3 3c c1 e5 b8 3c 01 bb b7 ba
       -0.045613933 0.023843061 0.022570493 -0.0014017523
000090 9e 73 5e 3d ec 94 c4 3c 88 58 00 3d 19 17 0b bf
       0.05430948 0.023996793 0.03133443 -0.5433212
0000a0 47 90 61 3c 79 17 e8 bc af 8a 3b 3c 28 95 40 bc
       0.013767309 -0.028331505 0.011446639 -0.011754312
0000b0 a3 a9 4f 3e e2 fd 65 3d f1 e1 f2 be 32 8a 2c 3d
       0.20279555 0.056150325 -0.47438005 0.04212398
0000c0 48 e3 c5 bc 94 1c e6 bc d1 56 c9 bd 03 60 58 bf
       -0.024156228 -0.028089799 -0.09831012 -0.845215
0000d0 0c 0f b4 bc 2d 01 f9 3c 13 6b 61 bb 31 75 86 3e
       -0.021979831 0.030396068 -0.0034396097 0.26261285
0000e0 55 95 bf bd 5e e6 28 bf e5 74 d0 bb 17 33 d0 be
       -0.09354655 -0.6597651 -0.006361591 -0.40663978
0000f0 1c df b2 3c e1 12 34 bd 90 47 fe bc d8 9a dc bc
       0.021834902 -0.043963317 -0.031039983 -0.026929304
000100 cc d7 77 bf 54 29 bd 3c 2c 93 ed 3c 1f 83 a9 3f
       -0.96813655 0.023090996 0.029000841 1.324314
000110 00 3b a0 bb 98 f0 99 bc 9b ff 2d 3c a3 9a a4 3b
       -0.004889846 -0.018791482 0.010620023 0.005023317
000120 63 00 4b 3d a7 a8 1e 3c c4 e6 7d bc ac fa 0b be
       0.049560916 0.009683765 -0.015496913 -0.13669842
000130 b2 8c 1c 3d 81 4b 7f 3d ae 41 9c 3d 32 0f 2e 3c
       0.038220115 0.062327866 0.07629715 0.01062374
000140 b4 0d 0c 3a e8 22 63 bc 3b 22 9c 3d b3 ec 02 3d
       0.0005342618 -0.013863303 0.076237164 0.031964015
000150 dd 91 b8 bc 18 8f 1c bc 0a 3c 17 bd 8c fd a7 3c
       -0.02253049 -0.009555601 -0.036922492 0.020506643
000160 7f 1d d9 3e 5c ed 95 3c 73 18 bc 3c 18 41 2b bd
       0.42405316 0.018301658 0.022960877 -0.041810125
000170 80 a2 1b bd e0 78 66 bc 0d fa ea c0 c3 8a 5d 3d
       -0.03799677 -0.014066905 -7.343024 0.05408741
000180 7c ed 10 3b de 24 1c 3f f0 63 c1 3c 2d a2 40 3d
       0.0022114208 0.60993755 0.023607224 0.047029663
000190 9f 43 2d bc 8b 7b 2a 3f d3 ac 7f 3c 39 5c c7 3e
       -0.010575204 0.6659476 0.015605169 0.38937548
0001a0 3d 56 a7 bb cf 4b 0d 3b 7a bb 8b 3d 1d 5d bb 3a
       -0.005106716 0.0021560078 0.06822868 0.0014294718
0001b0 53 2b 5d 3b aa cd e7 bd 26 8d 40 bd b6 50 66 bc
       0.0033747747 -0.11318524 -0.04700961 -0.014057329
0001c0 2d b8 ef 3c 64 fa fe be 6a 28 1b bc ff cb 19 3d
       0.029262627 -0.49800408 -0.009470085 0.03754806
0001d0 49 84 c7 3b 50 3b 6a bd 86 8f a1 bc 6a cc 58 bd
       0.0060887677 -0.05718547 -0.019721758 -0.05292932
0001e0 af 48 af 3c 39 8e ca c0 87 d6 a3 c0 ee d4 4c 3d
       0.021396963 -6.329861 -5.1199374 0.050007753
0001f0 13 93 68 3c c6 c3 2c 3d 1b fb b3 bc 9c bc d9 ba
       0.0141952215 0.04217889 -0.021970322 -0.0016611996
000200 41 83 1a bc e5 7a e1 3a f0 61 5a bf aa c0 43 3d
       -0.009430707 0.0017202763 -0.8530569 0.04779116
000210 bf d6 bd 3c 11 ed 80 bd d6 eb b7 be 17 2d f0 3c
       0.023173688 -0.06295217 -0.35922116 0.029318376
000220 d3 b2 8e 3b 0a c6 89 3c a6 f7 08 be ef 18 ec bc
       0.0043548136 0.016818065 -0.1337572 -0.028820483
000230 46 dc 72 bd 58 52 3a bc 86 c8 65 bf 1e e9 b0 3d
       -0.0592921 -0.011372171 -0.897591 0.086382136
000240 f4 f7 2a 3c 59 7f a5 3e fc 20 85 bc 96 48 2d bd
       0.010435093 0.3232372 -0.01625108 -0.04230555
000250 3d e2 54 3d 86 b7 de bb 91 8e 97 bc e7 d9 06 3d
       0.05197357 -0.00679678 -0.018500598 0.03292265
000260 88 61 22 3b 4d ba b2 bb a0 8a e5 3c b2 4e 16 3f
       0.0024777371 -0.0054543377 0.028020203 0.5871383
000270 0f c3 cd bb 4e 74 29 be b2 61 5f 3b ea 02 b2 ba
       -0.0062793563 -0.16548273 0.003408533 -0.0013581191
000280 ed b1 09 be 68 9f 10 bd f5 d7 65 3d f8 dd 0e 3b
       -0.1344678 -0.03530827 0.056114156 0.0021799784
000290 73 9b 8e 3d a1 b9 1c 3d 69 06 34 bc c8 87 5e bd
       0.06963243 0.038262967 -0.010987856 -0.05432871
0002a0 75 fa 87 bc 78 2b 39 bc c4 cd 6d bc ab 36 09 3f
       -0.01659892 -0.011301868 -0.01451439 0.5359904
0002b0 9c 37 d5 3d c4 51 23 3d 86 47 db bd c4 98 36 3b
       0.10410997 0.0398729 -0.107070014 0.0027862052
0002c0 16 d9 73 bc 5e 17 06 3d ec 65 ad 3c 81 1d 2c 3f
       -0.0148833 0.03273713 0.021166764 0.6723252
0002d0 35 fc 83 3b b7 7e d8 3e 5b 7a 6f 3b 14 5f 56 bd
       0.004027868 0.42284176 0.0036541435 -0.052336767
0002e0 50 78 36 be c3 1e 93 bb d8 c5 40 bc 0e ef f8 3c
       -0.17819333 -0.004489751 -0.01176592 0.030387428
0002f0 7e c2 83 bc 91 54 c2 3c e0 5d 35 3b 0c 31 8b 3a
       -0.016083952 0.023721965 0.0027674362 0.0010619476
000300 55 67 ac be 00 cc bf bb 5d 2c ad 3c e1 df 38 bd
       -0.33672586 -0.005853176 0.021139318 -0.045135383
000310 28 33 20 3d 06 73 f5 bc e2 75 d4 bf 4d e8 2d bf
       0.039111286 -0.029962074 -1.6598475 -0.6793259
000320 22 0a 1e 3d 2d 6e f2 3a 86 60 bd bf 03 01 7c 3c
       0.038583882 0.001849597 -1.4795082 0.015381101
000330 c6 e6 b4 37 06 65 46 3e ce 86 30 bd cc 22 d5 bc
       2.1565134e-05 0.19374475 -0.04309731 -0.026017569
000340 d8 0b 0e bd 90 5d c1 bc 62 bc 08 be fd 42 d0 be
       -0.034679264 -0.023604184 -0.13353112 -0.40676108
000350 57 48 5e 3c 99 fd 88 bc fe 6f 19 bc b3 a9 fc 3d
       0.013567052 -0.016722487 -0.00936508 0.12337055
000360 68 44 71 bb 84 21 f8 3b f4 f2 6c 3c 11 a5 b5 3c
       -0.0036814455 0.0075723547 0.014462221 0.022173436
000370 e1 3a e6 bc e5 98 05 bd 87 a5 82 3d 81 36 de bc
       -0.028104248 -0.032616515 0.06379228 -0.027125599
000380 f9 77 9d bd 55 b4 28 3b 94 d8 b9 bc 2d 69 10 3c
       -0.076888986 0.0025742252 -0.02268628 0.008814138
000390 a4 53 b5 3a 3a 18 86 3e c3 0c d9 bd c3 f0 3b bf
       0.0013834131 0.26190358 -0.10598137 -0.7341425
0003a0 c6 3b 06 3e 75 06 1d 3d b2 67 0a 3e b9 d4 e9 bc
       0.1310874 0.038336236 0.13516119 -0.028543817
0003b0 d4 5c 5c bd 10 4e fb 3c 4b 2c e7 bc 15 f6 ad bd
       -0.053799465 0.030676872 -0.028219363 -0.08494202
0003c0 00 fa f7 3a 9a c3 10 bc 99 51 2a ba 4e 0c 1d 3c
       0.001891911 -0.008835698 -0.00064971443 0.009585453
0003d0 1d 6d 93 be 72 74 cc 39 43 38 00 bf 51 32 b3 3e
       -0.28794184 0.0003899667 -0.5008585 0.34999326
0003e0 d5 ad e6 3c 66 42 fa bc f4 31 89 bc 8e eb 0c be
       0.028159061 -0.03054924 -0.016747452 -0.13761732
0003f0 a3 15 2d 3d 23 ac 83 3d fd 3d 03 bd 8a 78 f0 3d
       0.042256963 0.06429317 -0.03204154 0.11741741
