simulation and training/files/results/train_e0_5/SAC_actor_e0_4.onnx (onnx, 269711 bytes, 5 tensors)

latent_pi.0.weight f4 [256, 3]
00000000: 199d c13e b8b0 c1be 84aa 48bf 63e3 3cbe
00000010: c016 a8be 2f44 97be 916c dcbe 9f3e 53bd
00000020: 9648 afbc a873 86bd ae91 a5be 4a40 aa3e
00000030: 4ccd e7be 61c7 53bf 2b1b 52be 591e 85be
00000040: c9f3 91bf 61ba d73e 44ec 693b 3847 2b3f
00000050: d272 03be 149a aa3e 4bcd 69bf 9ba1 2abd
00000060: 837a 1d3e b72a 0a3e 06fd 7abc f737 2d3e
00000070: d255 a4bd 13fe e83e fb2a 213f 0fbf 903e
00000080: 8f52 a2bf f25c 3d3d c747 dbbe c7bd c23d
00000090: dc89 433f e8c6 bd3e 072d 653f cc58 03bd
000000a0: 8cf1 efbe 6e87 84bf 022c 8c3e ab94 ec3e
000000b0: 2b2a 57be 19f9 1bbe cf9d 0cbf 5083 aa3e
000000c0: 18ed 2a3e 22e1 cd3e 19ea c23e e0ad b43e
000000d0: 10af 413f 0dfa 2d3f d055 36be d94c cfb8
000000e0: 9103 053e 7ebb 9c3e 8af7 57be 018c 49bf
000000f0: 0447 df3e 24b5 65bf a510 4bbe 727f 073f
00000100: 22cb f53e 5e6a 1ebf b529 1c3f 58f7 f3be
00000110: cb75 073f 25fc af3e e030 8a3e 87e7 483f
00000120: b605 2a3e e8ce 54bf f736 82bf 2745 083f
00000130: 839d 513f 0179 59bd 1349 83bd 522c ca3d
00000140: b09e 403f da8e 50be 3145 053e 7488 8b3e
00000150: 4c66 a13d d150 98bd 7e82 d53e 9fd4 403e
00000160: 61b7 0e3f c4e7 8fbe 619b 173f f122 193f
00000170: 2282 8e3e dbf9 df3d eb68 8dbf 37ff 49be
00000180: d213 d8be d8df 0bbf bf79 e1bd b42d 2c3e
00000190: 2f37 213e f9c3 113f 13b9 abbe c6e5 51bf
000001a0: ffa7 b03e 974a ef3e 3e45 023e 15d2 68bf
000001b0: a10f 1e3e fdf4 01bf 9c74 18bc a87e f3bc
000001c0: 26bc 1dbd 8036 96be 889e 4f3c bec4 f7be
000001d0: ebf3 21be b8c9 b93e 843c 89bf 6ce0 dfbe
000001e0: f376 6bbe 59d1 e2be bced 703e b3e5 743e
000001f0: 5a0b e23e f617 f93c ce89 96be 5fee 953e
00000200: 94f5 353e 1ca5 833e 88da 7a3f 4afa 15be
00000210: d626 9cbb 35da 33bf f13d 0bbf 37de 283e
00000220: 0613 c5bc e705 743f 4f3b 5fbe b053 8e3e
00000230: 0ca3 55bf ea6a 523e adfc b63e c26a 43be
00000240: 5d03 b83e 699c 4bbf a622 3abe f67c 823e
00000250: a385 2c3d 4160 8cbe 60b0 3a3e 2a06 143f
00000260: ab21 8cbe 085d 9a3e e16e 23bf 69e5 ddbe
00000270: 9811 643e 464f 883e 33e2 ab3e c83f 6d3e
00000280: 705f 3a3e d47c 9e3e 9e57 32be 3da0 35bf
00000290: 4ae1 d9be ba08 093e 1aed 21be 2666 fa3e
000002a0: a34f c63e ee2d 413e fe03 ecbc 0827 04bf
000002b0: 1740 81bf 2f86 c6be a08e 0c3e 3672 e8be
000002c0: 63c0 8ebc 29c0 1cbf 696a 38bf cdc7 f53e
000002d0: 00bc a33e 378a d1be ffa9 5cbf a35e db3d
000002e0: 3c1e c63f 7a58 b5bf 74a0 483e 896e 643d
000002f0: 2397 35bf c714 663d 71b7 203f b10e 8e3e
00000300: cc54 dc3e 6af1 6e3f f57d 193f f8c5 233d
00000310: cd3c 00be 657c 30be f610 0e3f 6686 6f3e
00000320: 32ec c03e f671 2d3c 4625 043e bd57 92be
00000330: c7eb bf3e d755 8a3e 6710 713f e32c d1be
00000340: 11a4 13be fa67 2d3e 77c5 c33b dbeb 89bc
00000350: 7f13 a53e 0d8e 3ebe 2cba 0b3e e2db 3c3f
00000360: ca6e 093f 24c6 c83e 52e3 0e3f 5923 03bf
00000370: d426 afbf f5cd 3f3e 0ab6 a93c df24 8cbe
00000380: 1a13 133e b0d0 3d3e b154 a2bf 74ee 87be
00000390: b803 fc3d 47a7 67bf 9673 4ebe 2902 483e
000003a0: 061b bdbe 9b55 0c3e c98f 493e f2ee 393f
000003b0: 075b 41be 4ce6 e8be 4669 7abc 3940 a6bc
000003c0: 1897 203d 5887 59bf 5378 923d 7827 02bf
000003d0: 5aab 39bf eb91 843e 1223 af3e 03e3 183f
000003e0: e1a6 8e3d 063c 9f3e c722 19bf e270 47be
000003f0: 6dd4 2ebe 4df3 23bf 1bf6 463e dfb4 13be
0.37815168 -0.37830138 -0.78385186 -0.18446116 -0.32829857 -0.29544207 -0.4305158 -0.051573392
-0.021396916 -0.065650284 -0.32337707 0.33252174 -0.45273817 -0.82726103 -0.20518176 -0.25999716
-1.1402522 0.42134383 0.0035693804 0.66905546 -0.12836769 0.33320677 -0.9132888 -0.041658025
0.15378766 0.13492857 -0.015319115 0.1691588 -0.080241814 0.45506343 0.6295621 0.28270766
-1.2681445 0.046231218 -0.428282 0.095088534 0.7638223 0.37065816 0.8952183 -0.032067105
-0.46863973 -1.035383 0.27377325 0.46207175 -0.2101218 -0.15231742 -0.54928297 0.33303308
0.16692007 0.40210825 0.38069227 0.35288906 0.7565775 0.6795967 -0.17806172 -9.884843e-05
0.12989642 0.30611795 -0.21090522 -0.78729254 0.43608868 -0.89729524 -0.19830568 0.5292884
0.4800654 -0.61881053 0.6100114 -0.47649646 0.5291411 0.3437206 0.26990414 0.7847828
0.16603741 -0.83128214 -1.0173024 0.5323052 0.8188097 -0.053093914 -0.06410422 0.09871735
0.7524214 -0.20366994 0.13014676 0.27252543 0.0788084 -0.074372895 0.4170112 0.18831109
0.55748564 -0.2810651 0.59221464 0.5981894 0.27833658 0.10936328 -1.1047643 -0.19726263
-0.42202622 -0.54638433 -0.11009549 0.1681431 0.15743707 0.56939656 -0.33539638 -0.8199123
0.3450317 0.46736595 0.12721726 -0.9094556 0.1543565 -0.5076445 -0.009305146 -0.02972348
-0.03850951 -0.29338455 0.012672074 -0.4839229 -0.15815704 0.36286712 -1.0721593 -0.43725908
-0.22994594 -0.44300345 0.23528188 0.23915748 0.44149286 0.030406933 -0.29402012 0.29283425
0.17769462 0.25711906 0.979897 -0.14646259 -0.004765372 -0.7025483 -0.5439139 0.16491018
-0.024056923 0.95321506 -0.21799968 0.27798223 -0.83451915 0.20548597 0.3573965 -0.19083694
0.35940066 -0.7953554 -0.1817728 0.25485963 0.042119633 -0.27417186 0.18231344 0.57821906
-0.27369437 0.30149102 -0.6384106 -0.4333909 0.22272336 0.2662298 0.33571014 0.23168862
0.18200469 0.3095461 -0.17416236 -0.7094763 -0.42554694 0.13382235 -0.15813103 0.48906058
0.38732633 0.18865177 -0.028810497 -0.51622057 -1.0097684 -0.3877425 0.13726282 -0.45399636
-0.017425722 -0.61230713 -0.7203737 0.48003998 0.3197937 -0.40925762 -0.86196893 0.1071141
1.5477977 -1.4167626 0.19592458 0.055769477 -0.7093374 0.05617216 0.6277991 0.27745584
0.43033445 0.9333712 0.5995782 0.03998372 -0.12523194 -0.17234953 0.5549463 0.23391113
0.37680203 0.010586252 0.12904844 -0.28582564 0.3748457 0.27018616 0.94165653 -0.40854558
-0.14418055 0.16934195 0.0059744674 -0.016836097 0.32241437 -0.18608876 0.13645238 0.73773015
0.53684676 0.3921367 0.55815613 -0.5122581 -1.3683724 0.1873091 0.020716686 -0.2737188
0.14362755 0.18536639 -1.2682096 -0.26549113 0.12305397 -0.9048962 -0.2016128 0.19532074
-0.3693468 0.13704531 0.19683756 0.72630227 -0.1888238 -0.45488203 -0.015283888 -0.020294296
0.039206594 -0.84972143 0.07151856 -0.50841475 -0.72527087 0.25892577 0.34206444 0.5972139
0.069654234 0.31100482 -0.5981869 -0.19476655 -0.17073222 -0.6404312 0.1942982 -0.14424466

latent_pi.0.bias f4 [256]
00000000: afb8 23be 4623 b6bd da51 e9be 1f1c 80be
00000010: 8141 61bd 6248 133e 4224 c0bc c8ae 76be
00000020: 0d83 01bf f12a 2ebe 1592 2cbf b92d 1c3d
00000030: 262e 2abf 344d b0be 6461 423e 9104 00bf
00000040: 9ead 863d 28dc bcbe 4109 a0be e9d2 80be
00000050: 859f 19be 3ef0 20be e8f5 05bf 27cb b1be
00000060: 9d87 61be 6d03 063e 0924 0cbf 7b40 04bf
00000070: cdf7 c6be 44fb a93d 9080 41bd 85ef 0d3e
00000080: e95b 8d3d d682 33be bceb 1ebd 5dd4 fcbe
00000090: 205c 20be ee0a 86bc 35d1 073e 0fbe 35be
000000a0: bbcc b9bd ef12 24be 1d5e c0be 3ddd 33be
000000b0: c1b4 cabe 8735 c5be a67d 873e 0164 fd3d
000000c0: 3927 c8bd 16b6 e83e 0d2f c23d 6386 0dbe
000000d0: 5096 b3bc af03 a7bd 618b 013e 488d 8cbd
000000e0: 2f9d 04bf 8a49 3ebe dc89 12be cf9d d2be
000000f0: 00dd 55be 503b 993e 12af 0abf 1020 9abd
00000100: 773a adbe ea1c bdbd d15f b7be 2ccc 2dbd
00000110: c5e5 8fbe e776 a0be 5b6a c5be c589 29bf
00000120: db6e 6ebb 430e a6bc 661d 0cbf 3262 483e
00000130: cb60 263e 0028 543e 1830 95bd e312 95be
00000140: 59d6 e83d 85c4 a4be 225a 3fbe 48e5 83be
00000150: 13b9 cc3d 4753 823e 491c 103f 4daa 4dbe
00000160: 29eb 81be 4f17 e8bd b33d 4bbe aa8f fe3d
00000170: 5d38 fd3e 7b86 2c3d c566 afbc 062f 8bbe
00000180: c840 0ebe cce3 05bf 137d babe 18a4 edbe
00000190: 8b04 0e3d e849 3ebe c392 30be ffd9 c0bc
000001a0: 9428 b0be 27c0 bb3d 82bd 3ebe f63d a23d
000001b0: 408c 7abe 5728 313e dffe c2be ce86 803e
000001c0: 94c8 d2bc 910a 11be 6770 08bf 1092 aabe
000001d0: 0373 f7bd 3033 d83e 93af e3bd 88b1 c1be
000001e0: 9556 83be c2b5 43be 2b0a a6be 0392 81bd
000001f0: 31b9 f3be 69e6 41be c6e2 b6be 2532 22bf
00000200: 57ee e8be dc0b fcbd 5daa 14bd acb3 17be
00000210: e21f ad3e 6795 963d dbb1 8d3d 5ef7 30be
00000220: 8cd4 65be eee8 1a3e 307a f3be 54c8 febe
00000230: a425 01bf 76d0 c7be 9b0c c7be 61a6 13bf
00000240: 0bbf 073d d2ce 0e3e 0c6b 58be 5977 5abe
00000250: 0bcb 243e ca2c bf3d d698 cdbe 2cf5 d03c
00000260: dca2 57bd 77f0 4e3e 5b0c 84be 511d ecbb
00000270: 2462 18be fbad 86be 6863 21bf 1440 cbbd
00000280: 2dab 9cbe e10a 60bc d72a e4be 1c63 9ebd
00000290: 21d2 b2be 19f0 3fbe 868b ccbe 788d aabe
000002a0: 78f1 7cbe 38ec 24bf 1951 26bf 9db1 02bf
000002b0: 9a23 7e3e 01bc e2be b9da ab3e 182d d13d
000002c0: dd88 e0bc 18cf c63e bc33 74be 319d 143d
000002d0: 7b00 1ebe 8044 9ebe 275a 63be 0441 6ebe
000002e0: c19c f3be a372 6ebe 3ec4 873e 1d84 dbbd
000002f0: 79b8 9e3e 96ca 03be cf57 1fbf 17a4 e7bd
00000300: 310b d5bd b74a 2cbe 640d fbbe 0fd1 a7be
00000310: 7b14 aebe 3928 5fbe 346a c7be 0c76 d93e
00000320: 026f a1be e974 adbd f528 973e b64a b9bd
00000330: 6496 cf3b d395 70be 801a 3bbe 4732 39bd
00000340: b799 0bbf 572c 98be 6f11 2cbd 829b 63be
00000350: ebfc 7c3c 54a7 663b 2c13 75be d1f6 d7be
00000360: cabf 24be 1b88 8e3e 8362 cfbe 75ba 893d
00000370: 1976 893d cf41 10be 0888 88bd f39a 1bbf
00000380: 2a6c 0ebf 5749 71be 2046 a73e 23d6 f8be
00000390: 74d9 20bd 1daa 26be fd68 74bd 94e3 8abe
000003a0: f8dd c9be 70c5 21bf 0a43 b2bd 93d4 c8bd
000003b0: 7551 86be 5938 9dbe a37c 33be f96d 8fbc
000003c0: a422 ce3d be6f 993e b29d 20be 98f5 f7bd
000003d0: 2412 2cbe 7bbc 0cbe 9dcd 3fbe 8d96 27bf
000003e0: 9ff2 a6be 9cd0 b2bd 24a8 bcbe 4eec 9c3e
000003f0: 1cb3 fbbd 96e6 afbe cc42 1ebf 2174 0bbf
-0.1598842 -0.088934466 -0.4557026 -0.25021455 -0.05499411 0.1438308 -0.02345479 -0.24090111
-0.5059059 -0.17008568 -0.67410403 0.038129542 -0.66476667 -0.344339 0.18982464 -0.5000697
0.065760836 -0.36886716 -0.3125706 -0.25160912 -0.15002258 -0.15716645 -0.5232835 -0.34725305
-0.22024389 0.13087244 -0.54742485 -0.5166089 -0.38860932 0.08299878 -0.047241747 0.138609
0.06902296 -0.17530379 -0.038799033 -0.4938077 -0.15660143 -0.016362634 0.132634 -0.17748283
-0.09072252 -0.16022848 -0.37571803 -0.17564864 -0.3959103 -0.385174 0.2646305 0.1237259
-0.09773106 0.4545142 0.094816305 -0.13820796 -0.02192226 -0.081549995 0.12650825 -0.06862885
-0.51802343 -0.1858274 -0.14310402 -0.41136023 -0.20885086 0.29928064 -0.54173386 -0.07525647
-0.33833668 -0.092340305 -0.3581529 -0.04243104 -0.28104988 -0.31340715 -0.38557705 -0.66225845
-0.0036381993 -0.020270472 -0.5473236 0.19568709 0.16247861 0.20718384 -0.07284564 -0.29115972
0.113690086 -0.32181183 -0.18686727 -0.25760865 0.099962376 0.2545416 0.5629316 -0.20084496
-0.25374725 -0.11332571 -0.19847755 0.124297455 0.49457064 0.042120438 -0.021411309 -0.27184314
-0.138919 -0.52300715 -0.3642355 -0.46414256 0.0346723 -0.1858288 -0.17243485 -0.023541449
-0.3440596 0.091675095 -0.18626979 0.07921974 -0.24467564 0.17300545 -0.38085076 0.25102848
-0.025730409 -0.14164187 -0.5329651 -0.33314562 -0.120824836 0.42226553 -0.111174725 -0.37830758
-0.25651994 -0.19112304 -0.32429633 -0.06326678 -0.47602227 -0.18935551 -0.3571989 -0.63357764
-0.4549434 -0.123069495 -0.036295284 -0.14814633 0.33813387 0.07352715 0.06918689 -0.17281863
-0.22444361 0.15127918 -0.4755416 -0.49762213 -0.5044806 -0.3902623 -0.38876805 -0.5767575
0.033141177 0.13946083 -0.21134585 -0.2133459 0.1609308 0.09334715 -0.40155667 0.025507532
-0.05264555 0.20208918 -0.25790676 -0.007205643 -0.14881188 -0.26304612 -0.63042307 -0.09924331
-0.30599347 -0.013674469 -0.44563934 -0.07733747 -0.3492594 -0.18743934 -0.39950198 -0.33311057
-0.24701488 -0.6442294 -0.64967495 -0.51052266 0.24818268 -0.4428406 0.3356531 0.10213679
-0.027409011 0.38829875 -0.2384786 0.036282722 -0.15429871 -0.30911636 -0.22202359 -0.23266989
-0.4758053 -0.23285918 0.26516908 -0.10718558 0.31000116 -0.12870249 -0.6224336 -0.113105945
-0.10402525 -0.16825376 -0.49033654 -0.32776687 -0.34 -0.21792687 -0.38948214 0.42472875
-0.31530005 -0.084695645 0.29523435 -0.09047453 0.0063350666 -0.23494653 -0.18271828 -0.045213964
-0.54531425 -0.2972133 -0.042008813 -0.2222729 0.01544116 0.003519495 -0.23933095 -0.42180493
-0.16088787 0.27838215 -0.40504846 0.06725017 0.067119785 -0.14087604 -0.06666571 -0.6078331
-0.55633795 -0.23563133 0.3267069 -0.48600873 -0.03926988 -0.1627583 -0.059670437 -0.27126753
-0.3942716 -0.6319189 -0.08704193 -0.0980617 -0.26234022 -0.30707052 -0.17528014 -0.017508494
0.10065201 0.29968065 -0.15685156 -0.1210739 -0.16803795 -0.13743775 -0.18730779 -0.654641
-0.3260698 -0.08731195 -0.3684703 0.30649036 -0.12290022 -0.3435561 -0.61820674 -0.54474074

latent_pi.2.weight f4 [256, 256]
00000000: 574f b13d ce5f 4c3c 063d d63d 74cf 293c
00000010: 4a07 dc3d 8c78 283c 53a5 38bd 1106 a2be
00000020: 8cf0 e0bc 4821 8d3b a4e0 3bbd 5423 2ebd
00000030: 6797 11bd 1f3b 41be 9f42 e4bd c250 2fbd
00000040: 15f0 29bb 86db 7ebc b1ef 17bd 0d77 c5bc
00000050: 0a69 a2bd c0cc 72bd 0e9e 19bd ddbd a6bd
00000060: 9b61 82be 8a7b 18be 34f8 533d 14bc 39bd
00000070: 8bd7 ccbb d045 46bd 91ea 3cbe a958 5ebe
00000080: 5e86 2b3d ef86 e6bc 3e40 873c f2ab 9bba
00000090: 6dc6 61bd e060 c8bc db5b 913c c5f8 65bd
000000a0: b9eb 553d 7b49 c1bd f26c f7bc d1aa 2dbe
000000b0: 4f8a 4abe 893a 13be 3185 14be 78c9 53bd
000000c0: 5394 d2bd d5c4 2dbe 0c7a 223b bb2f 31be
000000d0: ea79 cabd 0b55 02bc 1c80 2abd d441 83bd
000000e0: 886b 39bc 343b b0ba 7b6e 6abd 643d 33be
000000f0: 7ff1 523a dc13 70be 2f48 fb3d 052f 8bbd
00000100: 3470 aabb 4d2b b0bd 0605 5fbc 4884 05bd
00000110: 3ac1 88be 04ee 05bd 44bf fc3c e2dd 79bc
00000120: a706 8ebd ee90 8dbe 5475 f43c e385 3ebe
00000130: 5b6a 74bd 7f9d b1bd 37a6 72bd 592b 2c3d
00000140: 451f 46bd eea1 d1bd cf37 babd 43af 27be
00000150: 8c09 ff3b afe9 e8bd 6cd0 91be cf23 89be
00000160: b2f8 5fbe 15b5 523d 7594 d3bd 86cd 923c
00000170: 98cf b2be 3461 8a3d 20fb b6bc fd19 26bc
00000180: 299e f63c 450c 6fbc 81ad cdbd 6ad1 20bd
00000190: 374b 6cbe 4a7c 63bd 71d7 1abe 300b 5cbd
000001a0: 485c 313d a13c a63c 5d42 d13c 4432 e0ba
000001b0: 6329 373c aae5 a53d b431 41bd a51c b5bd
000001c0: bf42 293d 8306 893b cc3f ff3c 8a0e a23c
000001d0: df90 063c 73c2 83be d831 8fbe a985 c3ba
000001e0: 4e71 a9bd e410 8e3c ef4d a53c 7406 bfbd
000001f0: b929 48be 1427 4ebe cc90 a4bd fd15 e5bd
00000200: a6d9 fa3d f999 93bd 3d09 83bd 541b c0bc
00000210: d88d f8bb 1175 68bd 820f 9ebc c594 23be
00000220: 1a1c 9cbe 86cd 0a3c 64bb 60bc 2561 4f3e
00000230: c0c6 85ba 5820 91bd dacf 77bc 0061 6e3a
00000240: 2e84 92be 4e17 c6bd b14d 0fbd 5c20 77bd
00000250: 2a63 bdbd da0f 253d aebf ed3b 2786 1cbe
00000260: 7ad9 36bd 52f9 93be 98bd 963c 270d 183d
00000270: 57ea 54bb 1fcf 9ebe 9eaf 843d f6e1 453d
00000280: 8340 ad3d 9a79 9a3d 03e4 9cbe 8e79 a8bd
00000290: c838 82bd 6d4b 89bd 4e73 86bc 067b f03d
000002a0: efcc bdbd d2ba 113c 7315 0dbe 0992 4c3d
000002b0: 891f 32bd b5ba 313d 68ee 1cbe 2d12 503d
000002c0: bfe5 8dbe 02f4 cbbe 1735 bebd 580e 9dbe
000002d0: 2c41 b23d 9a32 423c 205a 09bd 3c19 21bd
000002e0: 5266 733d faed 073b 133e 1bbd 3741 2c3d
000002f0: 35bb 27be 403e 9abe fdd3 41bb 6e12 30bd
00000300: 3639 80bd 4c3a 60be 0bd6 04bd c954 9dbe
00000310: f759 48bd 7e3a b13d ab3c 8cbd 0fbb ab3d
00000320: 6759 8b3d ef0c 28bd acc0 b4bd 1a51 913c
00000330: 05b3 68bd 5b0d 0c3d ec3e 2d3d 91aa 8f3d
00000340: 3deb 58bd 30a3 06be 00a3 9dbe c067 19bc
00000350: 3db8 3c3d ffbb 573d cf04 cbbd 6ff0 a9bd
00000360: 0811 9dbe d86b ccbe cf5f b43d a8d5 cebd
00000370: 70b4 b7be 7947 13bd b7ad d83c 667f 1abe
00000380: 6466 debd 0f5e 18bd 4c74 9dbd 56de bcbb
00000390: 088d 07bb 4878 6ebd 6b5b 5ebe fb5d 12bd
000003a0: b265 5d3e 389c 05be 025c fdbd 1a67 1abc
000003b0: 79b6 63bd 4f04 76be 3fc8 72bb d832 28be
000003c0: 848c b33d aec2 0d3d bbd8 0ebd 7252 0bbd
000003d0: 7637 1dbb 6614 6ebc 2360 f0bb 5435 643d
000003e0: 9436 e7bd a315 09bd 0e99 55be 1a9d 57bd
000003f0: 13f6 b8be b4ea f83c 23ab e1ba b188 79be
0.08657711 0.0124740135 0.10460858 0.010364402 0.10743578 0.010282647 -0.04507954 -0.31645253
-0.027458452 0.004306946 -0.04586853 -0.04251416 -0.03554478 -0.18870209 -0.111455195 -0.042801626
-0.0025930454 -0.015555268 -0.037093822 -0.02410462 -0.07930191 -0.059277296 -0.03750425 -0.08141682
-0.25465092 -0.14890876 0.051750377 -0.04534538 -0.0062512807 -0.048406422 -0.18448855 -0.21713509
0.04187619 -0.028140513 0.016510125 -0.0011876805 -0.055120874 -0.024460256 0.017743995 -0.05614545
0.052226756 -0.094378434 -0.030203316 -0.16959693 -0.19779323 -0.14377798 -0.14503933 -0.051705807
-0.10282197 -0.16969617 0.0024791984 -0.17303364 -0.098865345 -0.007954846 -0.04162608 -0.0640904
-0.011317141 -0.0013445378 -0.05723427 -0.17503887 0.000804685 -0.23445076 0.12269627 -0.06796078
-0.005201364 -0.08602009 -0.0136120375 -0.032596856 -0.2670992 -0.032697693 0.030852921 -0.015250655
-0.069348626 -0.27649635 0.029841103 -0.18605761 -0.05967174 -0.08672618 -0.059240546 0.042033527
-0.048369665 -0.10235964 -0.09092676 -0.16375451 0.0077831205 -0.113726966 -0.28479326 -0.26785132
-0.21872213 0.051442225 -0.1033105 0.017920267 -0.34924006 0.06756821 -0.022336543 -0.010138032
0.030104714 -0.014590328 -0.10042859 -0.039262213 -0.23075567 -0.055538453 -0.15121247 -0.053721607
0.043300897 0.020292582 0.02554434 -0.0017104824 0.011179301 0.081004456 -0.04716654 -0.08843354
0.04132342 0.0041816845 0.03115835 0.019782323 0.008213251 -0.2573429 -0.27967715 -0.0014917153
-0.08273564 0.017342038 0.020178763 -0.09327403 -0.19547166 -0.20132095 -0.0803543 -0.111858346
0.122485444 -0.07207102 -0.063982464 -0.023450531 -0.0075852685 -0.05675227 -0.019294504 -0.1597472
-0.3049019 0.008471852 -0.013716552 0.20251901 -0.0010206327 -0.07086247 -0.015125239 0.00090934336
-0.2861647 -0.09672414 -0.0349862 -0.060333595 -0.0924743 0.04029832 0.007255516 -0.1528555
-0.044640996 -0.28901154 0.018400952 0.037121918 -0.003248831 -0.31017396 0.06478809 0.048311196
0.0845957 0.07542725 -0.3064271 -0.0822631 -0.063584864 -0.067038395 -0.016412403 0.11742215
-0.092676036 0.008894639 -0.13777713 0.049943957 -0.043487106 0.04339095 -0.1532532 0.050798584
-0.27714345 -0.398346 -0.0928747 -0.30675006 0.08703837 0.011852885 -0.033533216 -0.039330706
0.059423752 0.002074121 -0.037900995 0.04205438 -0.16380008 -0.30125618 -0.0029575818 -0.042986326
-0.06260912 -0.21897238 -0.03243069 -0.30728748 -0.048913922 0.086537346 -0.06847509 0.08385288
0.068041615 -0.04102796 -0.08825812 0.017738868 -0.05681135 0.034192424 0.042296335 0.07014955
-0.052958716 -0.13148189 -0.30788422 -0.009363115 0.04607414 0.05266952 -0.099130265 -0.08297812
-0.30677056 -0.39926028 0.088073365 -0.100993454 -0.3587985 -0.035956834 0.026450021 -0.15087661
-0.10859373 -0.037199076 -0.076881975 -0.005763809 -0.0020683426 -0.058220178 -0.2171456 -0.035734158
0.21620825 -0.13047874 -0.12371065 -0.009423995 -0.05559394 -0.24025081 -0.0037045626 -0.16425645
0.087670356 0.03460949 -0.03487466 -0.034014173 -0.0023989356 -0.014531231 -0.007335679 0.05571492
-0.11289707 -0.0334679 -0.20859167 -0.052640058 -0.3612524 0.030385353 -0.001721714 -0.2436855

latent_pi.2.bias f4 [256]
00000000: 6e08 a23c 174f 7dbd 5a01 bc3c 5916 91bd
00000010: 395c 80be 5403 46bd 962b 7bbd 4d2c c238
00000020: f145 d9bc 0624 c63c d3b7 24bd fbfe 3bbd
00000030: 2289 6e3e 6404 adbd 094c 0fbd 02d4 983e
00000040: cfea 573c e6de 893c 08be 0f3c 837c dcbb
00000050: ac03 82bd 9928 653e fea0 0ebd 2c3b 6bbd
00000060: 553b a8bd 4386 a3bd 9f90 e13a 2065 01bc
00000070: fd18 903b 7dc0 4e3c 5b9b 3dbd e720 403d
00000080: 6b05 0cbd 5297 2dbb be21 9639 ec2a a03c
00000090: e3a9 09bd 7245 bfbd 1ec2 65bc 9258 86bd
000000a0: 362b 0cbd e523 2bbd c02f 4bbd 0c22 e83d
000000b0: f54f 6ebc 79de 343c 4c2f 49bd 3d76 14bd
000000c0: d67c fabd da6f 16bd aea0 103b def8 84bd
000000d0: 1bba 9ebd 6fa0 49be c55b d5bd 7c2d 90bd
000000e0: e652 88bd aff0 abbd 25bc 29bc ca08 2abc
000000f0: 9dc3 c73c 7cb0 85bd f293 1f3b da4d 07b9
00000100: bc4b d03c 7fd4 1d3c 363e 4ebd 9353 77bd
00000110: c358 adbc 44b2 fdbb ce90 97bb bda9 6a3c
00000120: 955d 64bd 1bdf 92bb a59b 1cbe dc06 23bd
00000130: 30b2 b6bb b4d8 8d3d 4978 2cbd 97fc ecbc
00000140: bccf 85bd c826 a4bc 37a1 903b f944 aabd
00000150: 326e b0bd 30f6 3dbd d2d7 4dbd 5583 95bd
00000160: 4a7a 873d 35f5 ee3b 9835 17bd e039 53bc
00000170: 1cbc 84bd 2472 0fbc 70ac 63bc d4b5 95bd
00000180: 929c 4dbe 745f 5f3c 9e10 30bd 6a52 2dbe
00000190: 2f03 2b3d aaf2 96bd 3ebc 78bd 50bf 12bd
000001a0: 3c15 57bc 0f92 a8bd dc7b 193c 89fe 543b
000001b0: 1dc2 4ebd 15c5 4dbd 129b c5bd 85ad 25bb
000001c0: 3779 113c da2d ff3d d032 b5ba 7bb5 253c
000001d0: 3e07 e03d 7f01 74bc ce6b 7abd 9207 bbbd
000001e0: f500 3abd 5505 f7bc 7aa7 893d 67ca a3bc
000001f0: 22c3 47bd 5c3a 93bd 3952 86bc 2582 86bd
00000200: 1398 5cbc 661b 14be 2d44 86bd 8fdc c4bd
00000210: 7c27 4dbd aa55 26bd 2b72 97bd 366a e2bc
00000220: 0090 22bd 9abf 813c c6cb 79bd 4dad b4bb
00000230: dd41 b0bc c60c 2dbd cb48 6cbd b089 52bd
00000240: a8ed 3c3d 9eec 39bd 09ef b0bd bdf3 283c
00000250: d162 e33c 5a2d 0ebd 21d0 a5bc 71ab 0b3d
00000260: 26fa 03be 6ffd 8fbc 542b 54bc bef7 1e3d
00000270: bf6a e83c a818 a339 6bd1 963c abe1 85bd
00000280: f130 1c3c 5551 22bd 0adc 88be 8fb7 ca3b
00000290: a288 0fbd 1d73 a83c 34f5 8d3c 0b7c 8b3b
000002a0: 9d75 01be 99ae 80bd a510 cdbb b4e4 96bd
000002b0: 0f6b 903c 8bf7 46bc e820 853c 970b ca3c
000002c0: 65a4 b7bd b754 d0bd a858 823d c673 76bd
000002d0: 555b 813b dc60 dbbd c0d6 bfbc 9f49 92bc
000002e0: 0515 783c 4f75 8cbb 0dde b2bd cddc 453d
000002f0: 2a0c 003b a1a2 aabd 66ce 10bc 0233 b5ba
00000300: e1d2 2bbd 92cc 543c 949f cf3c 2d07 143d
00000310: 7b3c 6ebd e83c 3dbc f9b6 b8bc 51d9 c4bd
00000320: 628e 56bd fcec 9f3d 66be c83d 043c eb3c
00000330: 7bc1 69be 50a3 f83c 1e1a 8bbe 9ba9 153e
00000340: c766 32bd 14a5 72bd 1d55 43bd ad63 ecbc
00000350: 32f2 0e3d c2cb 67bd 4a12 713d d6c9 60bd
00000360: 01bc 5a3c 9343 123d b779 7ebc 21bd 753c
00000370: dbad 7fbd 94df aebc dc11 92bc 741f 8a3e
00000380: 4bb6 55ba 2275 793d 3eae 183d 24da 723b
00000390: 49c9 1bbe 0026 bfbd bc44 863c d468 10bc
000003a0: 2c61 ce3c 68fe 7cbd 4707 82bd c59a 07bd
000003b0: 92bf 70bd c867 67bd 208a 87bd 6db5 9fbd
000003c0: c483 3b3b e3f7 463c 9b53 57bd 380e c53c
000003d0: 6c5c b13a dded 9cbc 69c6 38bc 2df0 9cbc
000003e0: 3eac d1bc ced7 94bd fc38 10bd 0972 bab8
000003f0: 891e 37bd 403a 95bd 2c9f 35bc a384 12bd
0.01977941 -0.061843004 0.022949863 -0.070843406 -0.2507036 -0.048343018 -0.061320864 9.2588925e-05
-0.026522608 0.0241871 -0.04021437 -0.045897465 0.232945 -0.08448103 -0.034984622 0.2984925
0.013178541 0.01682992 0.008773334 -0.00672871 -0.063483566 0.22378768 -0.034821503 -0.057429478
-0.08214442 -0.07984593 0.0017209238 -0.007897645 0.00439751 0.012619135 -0.046290737 0.046906378
-0.034184854 -0.00264879 0.0002863537 0.019551717 -0.033609282 -0.093394175 -0.014023332 -0.06559862
-0.034220897 -0.04178228 -0.049606085 0.11334619 -0.01454543 0.01103937 -0.04911737 -0.036245573
-0.12230842 -0.036727764 0.0022068429 -0.0649278 -0.077503406 -0.19690107 -0.10417894 -0.070399255
-0.066564366 -0.08395516 -0.010359799 -0.010378072 0.024385268 -0.06527802 0.0024349657 -0.00012903605
0.025426738 0.009633183 -0.050352298 -0.060382437 -0.021160489 -0.007742198 -0.0046254164 0.014322695
-0.05575331 -0.0044821627 -0.15293749 -0.039801463 -0.005575441 0.069260985 -0.0421069 -0.028929038
-0.06533763 -0.020038024 0.0044137496 -0.08313937 -0.08614768 -0.04637736 -0.05025465 -0.0730044
0.06615122 0.0072924145 -0.036916345 -0.012892216 -0.064811915 -0.008755241 -0.013896093 -0.073100716
-0.20079258 0.013633598 -0.042984597 -0.1692597 0.041751083 -0.07370503 -0.060726397 -0.03582698
-0.013127621 -0.082309835 0.009367909 0.0032500348 -0.05047809 -0.05023678 -0.09648718 -0.0025280428
0.0088789975 0.12459917 -0.0013824347 0.010114069 0.10938881 -0.014892935 -0.061137967 -0.09132303
-0.04541107 -0.03015391 0.06721397 -0.019993974 -0.048770078 -0.071888655 -0.016396629 -0.06567792
-0.013463992 -0.14463577 -0.06555972 -0.09612381 -0.050086483 -0.04060904 -0.07394823 -0.027638536
-0.03968811 0.015838433 -0.06098535 -0.005513823 -0.021515781 -0.04224851 -0.05768661 -0.05140084
0.046125084 -0.04539167 -0.08639342 0.010312018 0.02775708 -0.03471122 -0.020240845 0.034099046
-0.12888393 -0.017576901 -0.012949783 0.038810484 0.028371213 0.00031108153 0.018410405 -0.065371834
0.009533153 -0.039628346 -0.26730376 0.0061864327 -0.035042413 0.020562703 0.017328836 0.0042567304
-0.12642522 -0.06283302 -0.0062580877 -0.073678404 0.017629175 -0.01214398 0.016251042 0.02466373
-0.08966903 -0.10172408 0.06364566 -0.060169004 0.003947655 -0.10711834 -0.02341783 -0.01785737
0.01514173 -0.004286445 -0.08733759 0.048306275 0.00195385 -0.083318 -0.008838272 -0.0013824406
-0.041949157 0.0129882265 0.025344647 0.036139656 -0.058163147 -0.011550166 -0.022548186 -0.09611762
-0.05238188 0.07808873 0.098019406 0.028715141 -0.22827713 0.030351311 -0.27168363 0.1461548
-0.043555047 -0.059239462 -0.047688592 -0.028856123 0.034898944 -0.056590803 0.058855332 -0.054879986
0.013350488 0.035708975 -0.015531949 0.014998705 -0.06242166 -0.021346845 -0.017830782 0.26977122
-0.0008152469 0.060902722 0.037275545 0.0037056291 -0.15213503 -0.0933342 0.016390197 -0.0088140555
0.02519282 -0.06176606 -0.06349044 -0.033106584 -0.058776446 -0.056495458 -0.06618142 -0.07798276
0.0028612474 0.012144062 -0.052569967 0.024054632 0.0013531572 -0.01915639 -0.011277773 -0.019157493
-0.025594827 -0.07267724 -0.035210595 -8.890412e-05 -0.044706855 -0.07286501 -0.011085313 -0.035771023

mu.0.weight f4 [1, 256]
00000000: 46b5 143d f7e3 043c 01eb d33b 8b25 96bc
00000010: 6ab8 f13e 6d22 d1bd c682 c8be cb89 e83c
00000020: 9714 56b8 c763 bebc 437f 95bc 524e b33d
00000030: 7254 253f 618f 47bd e879 0c3c b2ad 66bf
00000040: 61b8 923c 735e 57bb 1d48 0ebd 3d8f 013c
00000050: fb41 64bc 2972 d63e 325b 123c 048e 51bc
00000060: 90c5 ec3c 3ab0 313d 66d3 a4bb c107 16bd
00000070: 12ce 123c f216 ee3c ee1f 293d 6c30 623c
00000080: 12aa 5a3e 563b 64bd 1108 23bc 4631 77bc
00000090: b614 2e3d a6d5 f5bd 83a0 71bc 2e9a 8cb9
000000a0: bd22 d43c 5b35 af3c 37f5 42bc 85e5 33c0
000000b0: 9095 55bd 9a27 45bd e242 863d 6786 813d
000000c0: 5397 d13e ef38 56bd 5dd5 903d b5b9 f03c
000000d0: 9b17 4d3e 7304 eebf 4b73 173e 01c2 1dbc
000000e0: 98f6 733d f5df 3dbe 0aff 043d 6bfd d5be
000000f0: 3da8 d13c f062 2d3e c681 273c 9215 843c
00000100: 9e37 11bd 43fa 2e3c 31d2 79ba be06 923c
00000110: d594 2bb9 530c 73bb 57c1 0f3e 1bc9 043c
00000120: d8f5 7c3c 0870 fe3b ae23 c3be 9c83 c73b
00000130: 94c7 5f3c 2f67 e0bf 8f2f 8bbc c726 84c0
00000140: 8d13 1abd 866b 113d a01b f13b 6016 2fbd
00000150: 833f 1fbd 0443 cc3d 1b76 f6b9 5fc8 413d
00000160: 6e60 8cbd b167 0b3c 6396 823c d033 223d
00000170: 6e6a 593d 8fb7 04bd 5991 a43d c975 a6be
00000180: 120b 4c3d 1dc6 aa3d d8c5 973b 9821 f5be
00000190: 7649 9d3c 6909 32bc 28e0 de3c 4a9a 173c
000001a0: 19a1 173d abf5 e63d b3fb 0ebd d809 853c
000001b0: ba32 ad3d 93dc 8abc 4bbf 16bd 4949 c13a
000001c0: 95b1 5dbb 4386 83bd e9f6 02bf 9e06 f13b
000001d0: 3ce3 8dbf 4eb6 80bb ff97 2a3d 60d9 2ebc
000001e0: 234c 203d ad4c be3c 343b 1140 8958 4fbd
000001f0: 295b 0dbf 6aa2 083d 5be2 93bc 907a 823c
00000200: 496b de3c bcf3 363f 792d c2bc 89b2 963d
00000210: 0a77 00be 629e ff3a d89a 003d ceed 313e
00000220: d983 89bb 08ac aabd 422a 203b 0835 d9b9
00000230: b327 cdbd 4bc6 29bd 386c 723c 88b1 41bd
00000240: 4ec5 163c fd84 16bd edfc dfbc 87e9 983a
00000250: b82a 16bc f889 983a f13e 5e3b 3c25 35bd
00000260: 6ca4 10bc b711 0bbc 6c5a 593c 032a 4ebc
00000270: b219 8e3c d919 443b 25a7 31b8 1489 f9bc
00000280: 1670 01bd a72e 833d f80d 1cbe 2e42 b8bc
00000290: 5c30 f93f 6082 043d d58b 073d d1aa a13b
000002a0: 5746 0c3e 0d79 933b c25a 7abc 1645 903c
000002b0: ebe3 d4bc ef50 ac3f 6f83 343b 59f9 21bd
000002c0: 9e04 d83c f0a1 d93f a52a 68bf 9234 6fbd
000002d0: 0f3d b3bb b0d7 b53d 2aab 1bb9 c5bf 053b
000002e0: d356 763f 6ae5 c83c b4ad 7f3c 4e8e 9cbc
000002f0: c8f3 613c c740 5fbd c332 0fbe c1b8 84bc
00000300: d0a9 a73c 635b a03c 3be8 223a d0b2 b4bc
00000310: 8308 4a3f cd93 0abd 5966 a03c e5b2 ce3c
00000320: 81ea 483d e75d bfbe 8edb 93bf 82f9 0bbd
00000330: c519 eebf 6286 143b d7c8 4540 e007 83bf
00000340: 6150 0fbc 2dac 893c 7e8c edbc df73 493c
00000350: ec38 06bc d5e6 89bf 9b8d 123f 64ff 07bd
00000360: a482 813d 4068 83bb b892 c6bd 25ef 0c3c
00000370: 9e06 84ba 4a13 123d 9ed1 abbb c949 70bf
00000380: 5a61 3dbc 8c2a 6f3f db8e dd3c 6eff 653c
00000390: f553 823e 269e 5e3d 138c b23c 22f7 513d
000003a0: 7476 333c 151e 26bd e0ca bb3d a506 8f3c
000003b0: 1d55 613c fe1e 463c de95 35bc 62ec d3bb
000003c0: 6f70 0ebd 25a5 303c 5217 063c 36bf 1a3d
000003d0: 9a57 11bc 5eda fd3c f8d8 543d a0d9 31bc
000003e0: e091 1f3e d3e0 d23b ab41 843c 5e7a 6e3d
000003f0: 8692 2fbe 37bf 82bc 56c9 05bd 3cea 2fbd
0.03630569 0.008110992 0.0064672236 -0.018328449 0.4721101 -0.10211644 -0.39162272 0.028386017
-5.104075e-05 -0.023240937 -0.01824916 0.08755173 0.6458198 -0.04872072 0.008573987 -0.9010879
0.017910184 -0.0032862693 -0.03473674 0.007907686 -0.013931747 0.41883972 0.0089328755 -0.012790207
0.028902799 0.043380953 -0.0050300835 -0.03662849 0.008960264 0.029063676 0.041290216 0.01380549
0.21353939 -0.05572065 -0.009950654 -0.015087431 0.04250022 -0.12003641 -0.014747742 -0.00026817754
0.02589547 0.021387747 -0.011899284 -2.8108838 -0.052144587 -0.04813347 0.06555726 0.06324463
0.40935764 -0.05230039 0.07071946 0.029385427 0.20028536 -1.8595108 0.14790075 -0.009628774
0.059561342 -0.18542464 0.032469787 -0.41794905 0.025592918 0.16932273 0.0102238115 0.016123567
-0.03545343 0.010679784 -0.0009529917 0.01782548 -0.00016363275 -0.0037086203 0.14038597 0.008104588
0.015439473 0.00776482 -0.3811316 0.006088687 0.013658423 -1.7531489 -0.016990451 -4.1297336
-0.0376163 0.035502933 0.0073580295 -0.042745948 -0.03887893 0.0997372 -0.00047008772 0.04731023
-0.0685433 0.008508609 0.01594085 0.039600194 0.053080015 -0.032401618 0.08035535 -0.32511738
0.049815245 0.08338568 0.004631739 -0.47877192 0.019200068 -0.010866501 0.027206495 0.009253094
0.03701887 0.11277326 -0.034908008 0.016240045 0.08456941 -0.016950881 -0.036803525 0.0014746572
-0.003382777 -0.06422093 -0.51158005 0.007355525 -1.1084971 -0.0039279824 0.04164886 -0.010671943
0.03913511 0.023229921 2.2692385 -0.050621543 -0.55217224 0.033358015 -0.01805227 0.015927583
0.027150767 0.7146566 -0.023703324 0.07358272 -0.1254541 0.0019502158 0.03139767 0.17375872
-0.0041966257 -0.083335936 0.002443925 -0.00041428977 -0.10017338 -0.041448873 0.014796309 -0.047288448
0.009202315 -0.03674792 -0.027342284 0.0011666276 -0.009165458 0.0011637798 0.0033912028 -0.044224963
-0.008828264 -0.00848811 0.013266187 -0.012583259 0.017346237 0.0029922633 -4.2355754e-05 -0.030460872
-0.031601034 0.064053826 -0.15239704 -0.022492494 1.9467883 0.032350898 0.03309234 0.004933693
0.13698708 0.0045005144 -0.015280427 0.017611068 -0.025987586 1.3462199 0.002754416 -0.039544437
0.02636939 1.7002544 -0.9069007 -0.058399744 -0.0054699252 0.0887903 -0.00014845715 0.0020408493
0.96226233 0.024523456 0.015605379 -0.019110825 0.013791032 -0.054505136 -0.13984208 -0.016201379
0.020466715 0.019574827 0.00062144146 -0.02205792 0.7891924 -0.03383236 0.019580053 0.025231788
0.049051765 -0.3737633 -1.1551378 -0.034173496 -1.8601614 0.0022663106 3.0903833 -1.0236778
-0.008747191 0.016805733 -0.028997656 0.012295692 -0.008192282 -1.0773569 0.5724732 -0.033202544
0.06323746 -0.0040102303 -0.09695953 0.008601938 -0.0010072773 0.035662927 -0.005243494 -0.9386259
-0.011558855 0.93424296 0.027045658 0.01403795 0.2545468 0.05435004 0.021795308 0.051261075
0.010953534 -0.040556032 0.09169555 0.017459223 0.013753203 0.01209235 -0.011083094 -0.006467388
-0.034775194 0.010781561 0.008184271 0.03778001 -0.0088709835 0.030987915 0.05196473 -0.0108551085
0.1558299 0.0064354925 0.016144594 0.058222167 -0.17145738 -0.015960319 -0.032662712 -0.042947993
